models/ocnn_2020-05-23-14:16:1590257814/params.npz (npz, 1246 bytes, 3 tensors)

w f4 [3, 32]
0	0xbe239978	-0.15976512
1	0xbe3335f7	-0.17501055
2	0x3d63b3f7	0.05559155
3	0xbe377765	-0.17916639
4	0xbe159085	-0.14605911
5	0xbe9e5969	-0.3092759
6	0x3e811b10	0.2521596
7	0x3e6cf77e	0.23141286
8	0xbe70af9c	-0.2350449
9	0x3d323636	0.04350873
10	0x3e357474	0.17720205
11	0x3e87f0f7	0.2655103
12	0x3e406b83	0.18791012
13	0xbdf9a0fd	-0.12188909
14	0x3dc5e1be	0.096621975
15	0xbe7c5705	-0.2464257
16	0xbcb3fe99	-0.021971988
17	0xbeb7a5fd	-0.35868827
18	0x3ebe8ad5	0.37215295
19	0x3d5ee76a	0.054419912
20	0xbe0afd35	-0.13573153
21	0x3d83e211	0.06439603
22	0x3dcc259a	0.099681094
23	0x3e8cf090	0.27527285
24	0x3db68c13	0.08913436
25	0x3de3b6be	0.1111884
26	0x3ec56c19	0.38559034
27	0xbc787848	-0.015165396
28	0x3d06ea27	0.03293815
29	0xbe157719	-0.14596213
30	0x3ec94059	0.39306906
31	0x3e3cf651	0.18453337
32	0x3b3801de	0.0028077285
33	0x3d541c1f	0.05178463
34	0x3e946531	0.28983453
35	0x3d547d91	0.051877562
36	0xbe42501f	-0.18975876
37	0x3e9e7ffc	0.3095702
38	0x3db084fe	0.08619116
39	0xbec319bd	-0.38105574
40	0x3df6e1d6	0.120547935
41	0xbf12279d	-0.57091695
42	0x3e1e5415	0.15461762
43	0x3db17f2f	0.086668365
44	0xbf091849	-0.5355268
45	0xbe8a7f94	-0.2705046
46	0x3de06d9e	0.10958408
47	0x3e9ee163	0.3103133
48	0x3e17bf08	0.14818966
49	0xbe69968d	-0.22811337
50	0xbe24a013	-0.16076688
51	0xbe56c91b	-0.20975153
52	0xbe9f3661	-0.31096175
53	0x3f1607f0	0.5860586
54	0xbea77b37	-0.32711193
55	0xbeebca44	-0.46052754
56	0xbe6ec42c	-0.23317021
57	0xbf07855c	-0.52937865
58	0x3ecc7514	0.39933074
59	0x3e8a0160	0.26954174
60	0x3dc87b65	0.09789161
61	0x3ed21989	0.41035107
62	0x3e9fae32	0.31187588
63	0x3bddc6c4	0.0067680795
64	0x3d83aac2	0.06429054
65	0xbd5bcee9	-0.05366412
66	0x3eb2bd62	0.34910113
67	0x3e688dcb	0.2271034
68	0xbe0e9f69	-0.13927998
69	0x3d7e9fca	0.062164105
70	0xbed74e73	-0.4205204
71	0x3deff690	0.1171695
72	0x3eac6e91	0.33678105
73	0xbe431077	-0.1904925
74	0xbe6ab918	-0.2292217
75	0x3e250ca3	0.16118102
76	0xbd81be32	-0.06335105
77	0x3a83dfc1	0.0010061191
78	0xbe851da3	-0.25999174
79	0xbe90eea2	-0.28307062
80	0x3e8c1241	0.27357677
81	0xbde5a156	-0.11212413
82	0xbeec2be6	-0.46127242
83	0xbed0a3a0	-0.40749836
84	0x3e8cd716	0.27507848
85	0xbdbc3f37	-0.09191745
86	0xbef29e57	-0.4738643
87	0xbcae4364	-0.021272369
88	0xbe801c0e	-0.25021404
89	0x3d7cbf4b	0.06170587
90	0x3e15ea9e	0.1464028
91	0x3eadb498	0.33926845
92	0x3e75d205	0.24005897
93	0x3da4c6c3	0.08045723
94	0xbeb48dac	-0.35264337
95	0xbe657b99	-0.2241043

V f4 [32, 1]
0	0xbbfc74d4	-0.0077043567
1	0xbd6edd65	-0.058316607
2	0xbea8964f	-0.32927176
3	0x3dd6bc55	0.1048514
4	0x3dbba6a5	0.09162644
5	0x3eec9c43	0.46212968
6	0x3e6595cb	0.22420423
7	0xbec4a1ac	-0.38404596
8	0xbc90c8fa	-0.017673958
9	0xbeb95db0	-0.3620429
10	0x3eaf764f	0.3426995
11	0x3e4417e1	0.19149734
12	0xbeee8a98	-0.46590114
13	0x3d18875c	0.037238464
14	0xbde2dcd2	-0.110772744
15	0x3e481166	0.19537887
16	0x3ea1dbe5	0.3161308
17	0x3a4d8d39	0.0007841173
18	0xbef50834	-0.4785782
19	0x3ce7728d	0.028252864
20	0x3d7158e1	0.058922652
21	0x3d9db9fa	0.07701488
22	0xbe2f3ca0	-0.1711297
23	0xbe997b96	-0.299771
24	0xbeb07ba4	-0.3446933
25	0xbee2217e	-0.44166178
26	0x3e91e96f	0.28498408
27	0x3ee66f18	0.45006633
28	0x3ea20700	0.31645966
29	0x3e0c0089	0.13672079
30	0xbdfc5337	-0.123205595
31	0x3d951e4f	0.072811715

nu f8 []
0	0x3f50624dd2f1a9fc	0.001
