models/ocnn_2020-05-19-21:46:1589939214/params.npz (npz, 990 bytes, 3 tensors)

w f4 [3, 16]
0.32549518 0.011973721 0.59402746 -0.05197264 -0.6292154 0.3749165 -0.00029864386 0.5010078
0.4869973 -0.053133093 -0.3777343 -0.64420915 0.0659112 -0.10249445 0.017615918 0.31160685
-0.19106783 -0.18445659 -0.10429122 0.4082862 0.49291658 0.3173261 -0.31623974 0.119824275
0.19201715 0.19510487 0.5978045 -0.30720496 0.18028286 0.35511592 0.4168012 -0.1662398
0.56212986 0.63464415 -0.3926842 0.19103204 0.28624508 0.4003072 0.060933497 0.16546808
0.15329722 0.13452432 0.5678783 0.26024726 0.34718406 0.10350961 0.45128894 -0.28472343
00000000: 4ea7 a63e 6d2d 443c 2f12 183f 43e1 54bd
00000010: 4314 21bf 0ef5 bf3e 4d93 9cb9 0c42 003f
00000020: b657 f93e 16a2 59bd 6466 c1be e4ea 24bf
00000030: 74fc 863d 9ce8 d1bd 424f 903c ef8a 9f3e
00000040: 49a7 43be 30e2 3cbe a396 d5bd e40a d13e
00000050: 905f fc3e 9178 a23e 2dea a1be 6e66 f53d
00000060: 25a0 443e 92c9 473e b709 193f f849 9dbe
00000070: 129c 383e c1d1 b53e f866 d53e c43a 2abe
00000080: bee7 0f3f 0a78 223f e70d c9be e79d 433e
00000090: b78e 923e 11f5 cc3e 6795 793d 7770 293e
000000a0: f2f9 1c3e bec0 093e 7960 113f 213f 853e
000000b0: 1cc2 b13e d9fc d33d 580f e73e 45c7 91be

V f4 [16, 1]
0.18366751 0.12069068 -0.66536146 0.12962347 0.33374262 0.6296583 0.32951087 -0.3219749
-0.04115853 -0.29864976 0.6837406 0.41683486 -0.44241327 0.2621322 0.07654231 0.28625566
00000000: 5613 3c3e ad2c f73d 2155 2abf 04bc 043e
00000010: 50e0 aa3e 4931 213f a6b5 a83e e5d9 a4be
00000020: d995 28bd 9fe8 98be a009 2f3f 616b d53e
00000030: fe83 e2be 3136 863e 37c2 9c3d 1a90 923e

nu f8 []
0.1
00000000: 9a99 9999 9999 b93f
