models/ocnn_2020-05-17-20:31/params.npz (npz, 798 bytes, 3 tensors)

w f4 [3, 4]
0	0x3f195f80	0.59911346
1	0x3e409f0c	0.18810672
2	0x3f61c918	0.8819747
3	0xbdc991f0	-0.098422885
4	0xbf359c21	-0.7094136
5	0x3f96b7af	1.1774806
6	0xbda9ed35	-0.08297197
7	0x3f2d03ae	0.6758374
8	0x3f502355	0.8130391
9	0x3da546a1	0.08070112
10	0xbf2ce123	-0.6753103
11	0xbf5e69e1	-0.8688031

V f4 [4, 1]
0	0x3d7bc7c6	0.061469816
1	0x3ec433be	0.38320726
2	0xbf9e0e9a	-1.2348206
3	0xbd91b2fb	-0.07114216

nu f8 []
0	0x3f847ae147ae147b	0.01
