models/ocnn_2020-05-23-14:17:1590257854/params.npz (npz, 1246 bytes, 3 tensors)

w f4 [3, 32]
-0.16311078 -0.1777529 0.05890298 -0.18187143 -0.14938273 -0.31256062 0.24884495 0.2346911
-0.23171265 0.04678735 0.17389117 0.2621441 0.19119485 -0.12521933 0.09852 -0.24974124
-0.02524579 -0.3620212 0.3754383 0.051089015 -0.13906801 0.057811867 0.102900326 0.27854404
0.09241134 0.114471726 0.3823215 -0.018449595 0.029664649 -0.14910643 0.39606538 0.1812078
0.0061697955 0.05432774 0.28642264 0.05510945 -0.18635882 0.312993 0.08960026 -0.38447994
0.11717064 -0.57434064 0.15802965 0.09012126 -0.5389496 -0.26711673 0.10666598 0.31372142
0.1516147 -0.22474967 -0.16418947 -0.2063686 -0.30755788 0.5957498 -0.33053464 -0.46395242
-0.23659442 -0.53280133 0.40275627 0.27296466 0.10131716 0.41375828 0.30850175 0.01016476
0.06770797 -0.050985113 0.3456672 0.23024054 -0.13584967 0.06559677 -0.41708717 0.11373754
0.33336285 -0.19392383 -0.22578762 0.16466069 -0.066783555 0.004430714 -0.26273388 -0.27963752
0.27700776 -0.10871426 -0.46470514 -0.40407702 0.27851704 -0.082522005 -0.47727665 -0.02470214
-0.25364533 0.058273524 0.14983255 0.34270084 0.24349023 0.083836675 -0.35596195 -0.22067566
00000000: 8306 27be db04 36be 4044 713d 813c 3abe
00000010: c9f7 18be f207 a0be 36d1 7e3e dd52 703e
00000020: 1546 6dbe 18a4 3f3d 8710 323e c037 863e
00000030: 95c8 433e 7f39 00be dbc4 c93d 2bbc 7fbe
00000040: 42d0 cebc d85a b9be 7339 c03e b742 513d
00000050: d867 0ebe 23cc 6c3d 68bd d23d 539d 8e3e
00000060: 2842 bd3d 2770 ea3d a5bf c33e 9b23 97bc
00000070: 4703 f33c 5baf 18be 15c9 ca3e 8a8e 393e
00000080: ff2b ca3b c486 5e3d fda5 923e 72ba 613d
00000090: d9d4 3ebe 9e40 a03e 5780 b73d 8eda c4be
000000a0: 29f7 ef3d fd07 13bf 86d2 213e 7f91 b83d
000000b0: 9af8 09bf 86c3 88be b173 da3d 18a0 a03e
000000c0: e240 1b3e c724 66be 4921 28be 4a52 53be
000000d0: 3a78 9dbe 0f83 183f d63b a9be 2c8b edbe
000000e0: cf45 72be ab65 08bf 1236 ce3e 06c2 8b3e
000000f0: 5f7f cf3d 20d8 d33e f1f3 9d3e 188a 263c
00000100: 7aaa 8a3d c4d5 50bd 4bfb b03e 2dc4 6b3e
00000110: 2d1c 0bbe 9957 863d 738c d5be 3aef e83d
00000120: 89ae aa3e f893 46be df34 67be d09c 283e
00000130: d1c5 88bd 862f 913b 0e85 86be a62c 8fbe
00000140: f6d3 8d3e 95a5 debd d5ed edbe 2fe3 cebe
00000150: c999 8e3e 4c01 a9bd 9b5d f4be 245c cabc
00000160: cddd 81be 38b0 6e3d b46d 193e 7c76 af3e
00000170: 8155 793e 90b2 ab3d a540 b6be cdf8 61be

V f4 [32, 1]
-0.010575606 -0.061780512 -0.3258438 0.10820748 0.08819453 0.46549493 0.22079028 -0.38726407
-0.014260863 -0.36546457 0.3392934 0.19499624 -0.46930292 0.0338183 -0.11259912 0.19187853
0.31954852 -0.0026714571 -0.48198253 0.02482865 0.055987645 0.081039496 -0.17455384 -0.30315366
-0.34810686 -0.44505268 0.28848577 0.45349306 0.31986693 0.14012145 -0.12622266 0.06940301
00000000: 4e45 2dbc 900d 7dbd 00d5 a6be e29b dd3d
00000010: 559f b43d 5a55 ee3e d916 623e 7a47 c6be
00000020: 65a6 69bc 2c1e bbbe ddb7 ad3e 18ad 473e
00000030: 7948 f0be 0f85 0a3d 5e9a e6bd ce7b 443e
00000040: dd9b a33e 9d13 2fbb 6ac6 f6be 7465 cb3c
00000050: 4d53 653d 09f8 a53d 3ebe 32be f536 9bbe
00000060: 103b b2be f2dd e3be 68b4 933e 3e30 e83e
00000070: 99c5 a33e ff7b 0f3e 8340 01be 2a23 8e3d

nu f8 []
0.001
00000000: fca9 f1d2 4d62 503f
