models/ocnn_2020-05-21-20:47:1590108458/params.npz (npz, 1246 bytes, 3 tensors)

w f4 [3, 32]
000000 16 db d8 3d 52 23 e4 bd ff 6e 02 3f 9b 6e 38 be
       0.10588662 -0.11139549 0.50950617 -0.18010943
000010 d5 bf 19 bf ff 7b 40 3e b2 00 43 be 5d 62 fe 3e
       -0.6005834 0.18797301 -0.19043234 0.4968442
000020 c6 65 dc 3e 47 7c 97 3d ff 04 ca be 7a dc 19 bf
       0.43046397 0.07396751 -0.39456937 -0.60102046
000030 4f 84 8e 3e 1f fa 84 be a5 69 43 be 0b 1b 98 3d
       0.27835318 -0.25972077 -0.19083269 0.07427033
000040 b6 14 bf be a7 5d e5 be 0b d7 20 3e 71 eb 04 3d
       -0.3732049 -0.44798014 0.15707032 0.032451097
000050 b4 65 f4 3d a0 9f f7 bc 71 47 2e be 66 de a7 3e
       0.11933461 -0.030227482 -0.1701944 0.32786864
000060 3a 70 b4 3e 59 8a d6 3e 1d be 55 3e e6 cc f8 be
       0.35241872 0.41902426 0.20873304 -0.48593825
000070 17 0f c7 bc bf 6c a1 bc 8b 29 c5 3e 10 63 c9 be
       -0.024299188 -0.019705174 0.38508257 -0.3933339
000080 0b 62 0b 3f 42 33 13 3f 4d 26 bc be 04 3b 8f 3e
       0.54446477 0.5750009 -0.3674797 0.27974713
000090 71 5a b1 3e fb a1 c2 3e ae 0f 72 3e 28 0f 91 bb
       0.34639314 0.38014206 0.23638794 -0.0044268556
0000a0 40 c8 2e 3d 3b ae 55 bc bc c4 08 3f db 26 a2 3e
       0.042671442 -0.013042028 0.5342519 0.3167027
0000b0 7f 34 db 3c ad d3 85 3e 72 24 04 3f 9a 78 63 bd
       0.02675843 0.26138058 0.5161811 -0.055534936
0000c0 ba 1d fc 3e 3d 95 f3 bd b1 f6 c4 be 92 ee bc 3d
       0.4924143 -0.11893699 -0.3846946 0.09225191
0000d0 a8 88 49 3e 01 91 94 3e 4d 46 53 3e d4 b4 8b be
       0.19681036 0.2901688 0.20632286 -0.27286398
0000e0 99 75 0b bf 2c 5f 44 be eb 2f 11 3f 14 e6 b4 bd
       -0.54476315 -0.1917693 0.5671374 -0.088329464
0000f0 3f d9 c1 3d 5c 2f 51 be 56 44 b7 be ae 4e a9 3e
       0.094652645 -0.20428222 -0.35794324 0.3306784
000100 c8 3f 88 3a b7 5c c0 3e 3e 6b 96 be c2 f2 07 3e
       0.0010394985 0.37570736 -0.29378694 0.13276199
000110 e8 d7 1d be 53 75 fa 3e 82 b4 7e bd 15 fc 9f bb
       -0.15414393 0.48917636 -0.062183864 -0.0048823454
000120 c8 d8 2a be 39 d3 3e be dd 5f 45 be 3b b5 e8 bd
       -0.16684258 -0.18635263 -0.1927485 -0.11362692
000130 ee bb c1 3d 74 b1 45 bd 54 a0 dd 3e 7a 6c 91 3e
       0.09459673 -0.048264936 0.43286383 0.28403074
000140 41 0e d4 3e 83 6b 6b 3e 94 f1 e4 bc 71 3f ab 3e
       0.41417125 0.22990231 -0.027947225 0.3344684
000150 5d 30 d1 3e 9b 3e 82 3e 3a e6 88 be 94 97 4a 3d
       0.4085721 0.2543839 -0.2673815 0.049460962
000160 03 3e f4 be b3 c6 0a 3e 99 42 cd 3e 8b 7c 66 3e
       -0.4770356 0.1355236 0.40089872 0.22508447
000170 65 3d 12 3e c4 10 02 3f 03 1e 51 bc b3 57 71 bd
       0.14281233 0.5080683 -0.012763503 -0.058921527

V f4 [32, 1]
000000 b5 17 8d 3e f6 d7 55 3e 40 43 7e be 20 f6 75 3e
       0.2755715 0.20883164 -0.24830341 0.2401967
000010 b1 70 cd 3e 01 ae 12 3f 06 73 19 3f 70 6d fe bd
       0.4012504 0.5729676 0.59941137 -0.12423217
000020 09 36 87 3d 6c b8 e7 bd aa b8 23 3f 1b 62 e9 3e
       0.06602103 -0.113144726 0.6395365 0.4558266
000030 1d dc 49 be d5 1e c8 3e 2a ff 36 3e 6b f5 06 3f
       -0.19712873 0.39086023 0.17870775 0.5271823
000040 fd 13 da 3e a4 99 a5 3e b5 87 74 be 7b b5 a2 3e
       0.42593375 0.3234378 -0.23879893 0.31779084
000050 bd 65 a7 3e ed c2 51 3e f3 8e ab 3d b8 04 57 bd
       0.32694808 0.20484515 0.08376875 -0.052494735
000060 ed bd 83 bd 9a da 3b be 6d 8a ca 3e 4d 0f 17 3f
       -0.0643271 -0.18345109 0.39558735 0.5900772
000070 0f 0f fc 3e 93 a3 8c 3e a2 21 0b 3e 05 d2 c1 3e
       0.4923024 0.27468547 0.13587049 0.37855545

nu f8 []
000000 7b 14 ae 47 e1 7a 84 3f
       0.01
