models/ocnn_2020-05-21-20:26:1590107192/params.npz (npz, 990 bytes, 3 tensors)

w f4 [3, 16]
00000000: c6eb a53e 56ea 2f3c b976 183f ca1d 5abd
00000010: 0177 21bf 1e2c bf3e 8e4a f6ba 9ca9 003f
00000020: 722e fa3e ae26 53bd 8f2f c2be 4f4e 25bf
00000030: 0b36 8a3d 76f4 d4bd b5ba a13c 59bb 9e3e
00000040: ec05 43be 1e32 3dbe 93b7 d7bd 0f02 d13e
00000050: 0ddb fc3e eeff a23e 7d4c a1be f8ee f23d
00000060: 6c2f 433e 348c 463e fe4d 193f 77c9 9cbe
00000070: d065 373e 1442 b63e 22b4 d33e 7dfc 28be
00000080: 951e 103f eb79 223f ebaa c9be 23dd 433e
00000090: bf20 933e 5e91 cd3e e010 7f3d 5611 283e
000000a0: 716d 1b3e 3560 083e 1daf 113f 63d5 853e
000000b0: e614 b13e 501f d63d 2279 e53e 9616 91be
0.32406443 0.010737022 0.59556156 -0.053251065 -0.6307221 0.37338346 -0.001879053 0.50258803
0.4886356 -0.05155056 -0.3792691 -0.64572614 0.06748589 -0.1039819 0.01974235 0.3100231
-0.19045228 -0.1847615 -0.10533061 0.40821883 0.49385872 0.31835884 -0.31503668 0.11861986
0.19061059 0.19389421 0.5988463 -0.30622455 0.17909932 0.3559729 0.41348368 -0.16502567
0.56296664 0.6346728 -0.39388213 0.19127326 0.2873592 0.4014997 0.062271953 0.16412863
0.15178467 0.1331795 0.56907827 0.26139364 0.34586257 0.10455191 0.4481898 -0.28337544

V f4 [16, 1]
00000000: 719f 3c3e 4647 f93d 17a3 2abf a99b 053e
00000010: c776 ab3e 4d67 213f 0203 a83e e82d a4be
00000020: e356 23bd 7334 98be af54 2f3f 5b6f d63e
00000030: 7fd5 e1be cf98 863e d45c 9f3d 79db 913e
0.18420197 0.121717975 -0.66655105 0.13047661 0.33489057 0.6304825 0.32814795 -0.32066274
-0.039877784 -0.29727516 0.6848859 0.41881832 -0.44108197 0.2628846 0.077813774 0.28487757

nu f8 []
00000000: cdcc cccc cccc ec3f
0.9
