models/ocnn_2020-05-23-14:15:1590257758/params.npz (npz, 1246 bytes, 3 tensors)

w f4 [3, 32]
00000000: 813d 24be 05d7 33be f648 663d ae19 38be
00000010: bd35 16be 00ac 9ebe 79c8 803e 949c 6d3e
00000020: 5c0a 70be d8ca 343d 3dcf 343e c39e 873e
00000030: ae10 413e 6deb fabd 4816 c73d 3efc 7cbe
00000040: 9227 b9bc 93f8 b7be 6edd be3e 6c52 5c3d
00000050: 21a2 0bbe cd95 833d 856f cd3d 1f43 8d3e
00000060: 53d6 b73d 1401 e53d 9019 c53e 8565 81bc
00000070: c055 043d ae1b 16be f291 c93e 0f51 3c3e
00000080: 8c7e 613b 308c 563d c710 943e 6733 573d
00000090: e2a7 41be bcd4 9e3e 49d6 b13d 806e c3be
000000a0: ba92 f53d 0c52 12bf d8fc 1e3e 6dcf b23d
000000b0: ac42 09bf ad2b 8abe eb13 df3d ab35 9f3e
000000c0: be68 183e 68ef 68be 8a49 25be 6521 56be
000000d0: 7de2 9ebe 6c1c 163f 76d0 a7be 221f ecbe
000000e0: ce6d 6fbe bbaf 07bf efc9 cc3e 2056 8a3e
000000f0: c8ce c93d 3b6f d23e 2658 9f3e 36cb f23b
00000100: 69f8 843d fd59 59bd 9b68 b23e 4c3b 693e
00000110: 56f6 0dbe 4da4 803d b8f9 d6be 03a2 ee3d
00000120: 561a ac3e c8ba 43be 880f 6abe 7eb5 253e
00000130: 9d12 83bd a533 d83a a773 85be f399 90be
00000140: 7567 8c3e 4051 e4bd fe80 ecbe 594f d0be
00000150: 752b 8d3e 9fa0 bbbd edf3 f2be f296 b3bc
00000160: 4171 80be 5c16 7a3d 1495 163e b009 ae3e
00000170: 6b7c 763e 6f1e a63d dee3 b4be a5d2 64be
-0.16039087 -0.17562492 0.056221925 -0.17978546 -0.14668937 -0.309906 0.25152948 0.23204261
-0.23441452 0.04413876 0.1765718 0.26488313 0.18854019 -0.12251935 0.09721047 -0.24705598
-0.022601876 -0.35931835 0.37278312 0.05378954 -0.13636066 0.064250566 0.10031036 0.27590272
0.08976426 0.11181846 0.38496065 -0.015795479 0.03230834 -0.14658996 0.3936916 0.18390296
0.0034407703 0.052379787 0.2891905 0.052539255 -0.18911698 0.31021678 0.0868345 -0.38170242
0.119908765 -0.57156444 0.1552614 0.087309696 -0.5361736 -0.26986447 0.10892471 0.31095633
0.14883706 -0.22747576 -0.16141334 -0.20911177 -0.31032172 0.5863712 -0.3277623 -0.46117502
-0.23381731 -0.5300252 0.39997813 0.27018833 0.098538935 0.41100487 0.3112194 0.0074094785
0.06492693 -0.053064335 0.34845433 0.22776526 -0.13863501 0.06281338 -0.41987395 0.11651995
0.33613843 -0.1911422 -0.22857487 0.16182515 -0.064000346 0.0016494883 -0.26064798 -0.28242454
0.2742268 -0.1114831 -0.46192163 -0.40685537 0.27572218 -0.091614954 -0.47451726 -0.021922562
-0.25086406 0.06105648 0.14705306 0.33991766 0.24070899 0.081112735 -0.353301 -0.2234598

V f4 [32, 1]
00000000: 9e63 08bc a57c 71bd ab41 a8be 8c10 d83d
00000010: 5854 ba3d a3f0 ec3e 0ded 643e 34f5 c4be
00000020: 7583 8bbc 9db2 b9be 3622 af3e 8cb8 433e
00000030: 41df eebe 9be4 153d 8c31 e4bd a766 473e
00000040: 5b31 a23e e6f0 0e39 ee5c f5be b829 e23c
00000050: 46cf 6e3d 0400 9f3d 99e6 2fbe 0cd0 99be
00000060: c3d0 b0be 3a76 e2be 7940 923e 4ac4 e63e
00000070: 1e5d a23e 1eaa 0c3e f8a3 fdbd 7ecd 933d
-0.008324532 -0.05895676 -0.328626 0.10550031 0.090981185 0.4627734 0.22356053 -0.38468325
-0.017030457 -0.36269084 0.34205788 0.19113368 -0.46654704 0.03659497 -0.11142263 0.19472753
0.3167828 0.00013631917 -0.47922462 0.027607784 0.05830314 0.07763675 -0.1717781 -0.3004154
-0.34534273 -0.44230825 0.28564814 0.45071632 0.31711668 0.1373677 -0.1238479 0.07216929

nu f8 []
00000000: fca9 f1d2 4d62 503f
0.001
