models/ocnn_2020-05-17-18:03/layers.npz (npz, 1002 bytes, 2 tensors)

w f4 [3, 32]
000000 7a 33 23 be 37 37 34 be ca 9f 60 3d 28 34 35 be
       -0.15937606 -0.17599188 0.054839887 -0.17695677
000010 30 e6 14 be b3 e2 9d be 47 7a 81 3e e3 02 6c 3e
       -0.14540935 -0.3083702 0.25288603 0.23047976
000020 25 36 71 be 3f 64 2e 3d 3e 3a 36 3e 1e 55 88 3e
       -0.23555811 0.04257607 0.17795655 0.2662744
000030 88 7e 3f 3e a1 77 f8 bd 35 fc be 3d dd 9a 7b be
       0.18700612 -0.121321924 0.093254484 -0.24570794
000040 29 29 ac bc 85 6b b7 be b0 14 be 3e 11 22 61 3d
       -0.02101572 -0.35824218 0.37125158 0.05496413
000050 03 5b 0a be 03 34 96 3d 0e c7 c9 3d 1c 72 8c 3e
       -0.1351128 0.07334139 0.0985242 0.2743081
000060 99 9e b4 3d 7f d9 e1 3d 1e ec c5 3e cd 99 69 bc
       0.088193126 0.11027812 0.38656706 -0.01425786
000070 80 d7 0a 3d 3f 10 14 be c2 5c c8 3e d0 9a 3d 3e
       0.033896923 -0.14459322 0.3913327 0.18516088
000080 f7 b2 19 3b bf bd 4f 3d a1 8c 94 3e b8 e7 55 3d
       0.0023452619 0.050718065 0.2901354 0.052222937
000090 e0 aa 42 be 81 61 9e 3e 47 e1 af 3d d3 fc c2 be
       -0.19010496 0.30933765 0.0858789 -0.38083515
0000a0 03 b7 f7 3d 29 19 12 bf 7b 05 1e 3e 1c e4 b0 3d
       0.120954536 -0.5706964 0.15431778 0.086372584
0000b0 01 09 09 bf ba b1 8a be be ae de 3d f3 b7 9e 3e
       -0.53529364 -0.2708872 0.10873173 0.30999717
0000c0 e9 87 17 3e fa 08 6a be 98 62 24 be 1c 30 57 be
       0.1479794 -0.22854987 -0.16053236 -0.21014446
0000d0 97 65 9f be 46 f8 16 3f 4c 6b a7 be 2e af eb be
       -0.31132194 0.58972585 -0.3269905 -0.4603209
0000e0 4f 8b 6e be 3d 76 07 bf ab 5a cc 3e ff e2 89 3e
       -0.2329533 -0.5291479 0.39912924 0.26930997
0000f0 be 0d c8 3d f0 15 d2 3e 8b 9c 9f 3e 51 1c d2 3b
       0.09768246 0.41032362 0.3117412 0.006412067
000100 7f bb 82 3d f9 4c 5f bd 4c eb b2 3e bb a0 68 3e
       0.06383418 -0.054516766 0.34945142 0.22717564
000110 ff 02 0f be 83 5f 7d 3d 53 7d d7 be 9c 92 f0 3d
       -0.13965987 0.061858665 -0.42087802 0.117467135
000120 8e a5 ac 3e 6b c2 42 be b8 14 6b be b1 b1 24 3e
       0.33720058 -0.19019477 -0.22957122 0.16083409
000130 c7 1d 81 bd 87 da 1d 3a 1e 52 85 be d8 1d 91 be
       -0.06304508 0.0006021638 -0.26039213 -0.2834308
000140 2b ec 8b 3e 9b 87 e6 bd af 03 ec be 72 d9 d0 be
       0.2732862 -0.112563334 -0.4609656 -0.40790898
000150 1b a4 8c 3e 42 9a b7 bd dd 7f f2 be 98 e6 ab bc
       0.27468953 -0.08964969 -0.47363177 -0.02098398
000160 bd ea 7f be 37 fe 7d 3d ed 9f 15 3e 9d 8c ad 3e
       -0.2499189 0.062010016 0.14611788 0.33896342
000170 fc 85 75 3e 16 6d a4 3d 20 85 b4 be ea e0 65 be
       0.23976892 0.08028619 -0.35257816 -0.22449079

V f4 [32, 1]
000000 b9 c0 fa bb 9f 12 6e bd 0d c0 a8 be 88 ee d5 3d
       -0.007652369 -0.058123227 -0.32959023 0.10445887
000010 0a 3d bc 3d f9 65 ec 3e 08 04 66 3e a8 6e c4 be
       0.0919133 0.4617155 0.22462475 -0.38365674
000020 9b 04 94 bc db 3b b9 be df b3 af 3e d6 61 48 3e
       -0.018068602 -0.3617848 0.34316918 0.19568571
000030 00 63 ee be e8 a8 19 3d ad f3 e1 bd c7 56 48 3e
       -0.46559906 0.037514597 -0.110328056 0.19564353
000040 8b ba a1 3e 07 79 7b 3a 9b d4 f4 be 73 47 ea 3c
       0.31587633 0.00095929246 -0.47818455 0.028598523
000050 5a 61 71 3d 31 a0 9d 3d 84 ec 2e be 32 4d 99 be
       0.058930732 0.0769657 -0.17082411 -0.29941708
000060 78 55 b0 be 47 04 e2 be 27 07 92 3e 02 4c e6 3e
       -0.34440207 -0.44143888 0.28521082 0.44979864
000070 2a f1 a1 3e 41 b5 0b 3e 7b 21 fa bd 68 fc 95 3d
       0.31629306 0.13643362 -0.12213417 0.07323533
