models/ocnn_2020-05-18-21:301589851821/params.npz (npz, 2526 bytes, 3 tensors)

w f4 [6, 64]
00000000: 87f9 b83e 3fcd 17be 6650 1a3e 5402 2e3e
00000010: dd56 13be fa4e a63e f16a 2c3e bc27 bc3d
00000020: 5967 963d 4f99 42be 6e4b 04bd 0d99 21be
00000030: 0ec6 06be 5644 083e 9114 4cbe c410 9f3e
00000040: 2402 2ebd a937 a6bc 5259 eebd c3a2 8a3e
00000050: 12d8 983e efd1 37bd c986 aabe 7ca0 5abc
00000060: ed68 293d b179 073d 23c4 b43e ee85 c6bd
00000070: b651 863e f2b0 7e3e fd06 d03d 5506 1abb
00000080: 6e56 c53e 5ab8 283e 84df fcbc fc62 84bd
00000090: ec6a 8dbc 6461 12be 98ae 0abe 626c cf3c
000000a0: 82cd c2bc b399 b3bb a021 ed3d 0d05 513e
000000b0: 0af2 b23e 81bf 003e 799f 153e cfcf adbd
000000c0: 12ad b53d f822 f5bd 5f90 dbba 55e3 07be
000000d0: 6fbe 053e 1342 e2bc 8afc a53e 92fa 6f3d
000000e0: 67c6 bbbe 3473 04be 456d ca3e 5a52 b0bd
000000f0: 9f29 51be ff15 29be 0c39 ddbd d607 7fbd
00000100: a398 82bd 7194 e3bb 8ea4 e9bd 4ffb 953c
00000110: f8c5 62be 2516 7b3e aac1 4ebe 2924 e93d
00000120: 059c 8abd 3e6f 0dbd 037b 82be e58c 45be
00000130: 449c 853e 9243 29be 3e4b c93d 5b34 9a3d
00000140: 7bdb 543e 3ab3 5c3d a71a 9c3d 1051 313e
00000150: 5204 683e 91e7 36bd 2a44 2abe 1c5d ff3d
00000160: aee0 84be fcf0 673e 3386 573e be60 313d
00000170: 0fa4 b0bc 5874 a23e cdfa 89bd 1bb3 13be
00000180: c0d8 3dbd 6085 9ebe 0deb 143d 3601 2cbe
00000190: 618a 1dbc d8ca b73d ed9e b13d 7ea3 62bd
000001a0: 8d52 a23d 2130 543e 4536 83bd fc89 f23c
000001b0: 7e88 a43d b2f2 d13c de32 4a3e 05ca 743e
000001c0: 9cc3 07bc edbc afbd 86ea 4ebe 8728 abbe
000001d0: 1e94 74bc 6ff2 9ebe 5631 4f3e d767 24be
000001e0: 1808 8abe d73f 6a3e ad06 00bc 2778 863e
000001f0: 1595 febc 449c d8bd f1c6 4c3d a15e 523e
00000200: e320 943d 7bed 963d addb 1fbe c485 4e3e
00000210: 339a 6d3e 3d17 34be 7d81 453e 55a7 f93d
00000220: 2245 7b3e 35ce 2abe d1a4 163e 6833 6ebe
00000230: 12ff 1b3e 64dd 063c 9431 f43d ac73 50be
00000240: ad6e 3abe a78a 0e3e 88d3 81be 9839 ae3d
00000250: c101 113e 31d7 ae3c 0149 46be d6cc febd
00000260: 3956 8f3d 1a82 64be 0ea1 ca3d c464 51be
00000270: 4ff4 c0bd e7b2 bc3d 670f 8c3e f9fa 1abd
00000280: f330 4b3d 4bfe 92be cbd8 75be ca72 303e
00000290: 1204 7fbe 58d6 b63c 8e70 d23b 0f23 24be
000002a0: 2c07 0bbd 643e df3d f1f4 523e b556 af3d
000002b0: f21b 30bd 3a33 75be c9e7 36be 3b65 31be
000002c0: 1952 793e c991 973e e75f 7ebc db2b 823e
000002d0: e0e1 b43d 308b 4abd fc6c 423e 2ebb 5f3e
000002e0: bcff f5bd d1c8 373e c641 163e 9e65 8cbe
000002f0: 46b6 76ba f550 7bbe 389d 85be 9ae4 0e3e
00000300: 28a3 6dbe 87f2 163e bc41 6fbe bdad 0ebe
00000310: b48c 363e ea89 143e 3107 1d3e 18a6 fc3c
00000320: 080c 483e 8b93 a73d 044e 6f3e a182 2d3e
00000330: ef47 483c ecf9 213c d96d 4fbd cc7f 32be
00000340: 4ba5 69bd ee80 f4bd 74b2 ad3d fb9c 443e
00000350: b6d4 2ebe c2e5 f4bc 60ed 72be b163 4b3d
00000360: 9a7e 723e d3e7 633e 3250 12be 0cc8 193e
00000370: 073c 3e3e 692a 2bbe c629 f13d b824 6abe
00000380: b2e1 fa3d 0d18 d33c eb27 8b3e 8290 18be
00000390: e71d b23d ba6c 88be 75ea 61be ebe8 86be
000003a0: d161 bbbd b02d 83bd 128d 483e c0e9 9dbd
000003b0: 8e37 10be 4d99 973d 9981 2ebe 25ea e43d
000003c0: 81b0 b23b 89dc 413e 989f bdbd ca80 b63e
000003d0: f3bf 55be 4041 4c3e ff40 d5bd 6ed7 54be
000003e0: cbe7 5d3e 539f 46be 7449 0f3e c5d6 a6be
000003f0: 9244 f93d e251 f5bd 50d4 c9bd 7d40 233d
0.36127874 -0.14824389 0.15069732 0.16993076 -0.14388604 0.3248213 0.1683767 0.09187266
0.07343931 -0.19003795 -0.032298498 -0.1578104 -0.1316149 0.13307318 -0.1992972 0.3106748
-0.04248251 -0.020290213 -0.1163813 0.27077302 0.2985235 -0.044877943 -0.33305958 -0.0133439265
0.04135983 0.03307504 0.3530589 -0.09693514 0.26234215 0.24872187 0.10157583 -0.002350231
0.38542503 0.16476575 -0.0308683 -0.06464192 -0.017262898 -0.14294964 -0.13543165 0.025320236
-0.023779634 -0.005480969 0.11578679 0.20412083 0.34950286 0.12573053 0.14611615 -0.08486902
0.08870901 -0.119695604 -0.00167514 -0.13270314 0.13060926 -0.027619397 0.32419235 0.05858857
-0.36674806 -0.12934572 0.3953649 -0.08609457 -0.20426033 -0.16512297 -0.108018965 -0.062263332
-0.063767694 -0.006945186 -0.114083394 0.01830831 -0.22145832 0.24520166 -0.20191064 0.1138385
-0.067680396 -0.034529917 -0.25484475 -0.19292028 0.26095784 -0.16529682 0.098288044 0.07529517
0.2078685 0.05388186 0.07622271 0.17316079 0.22657898 -0.044654433 -0.16627565 0.12468931
-0.25952667 0.22650522 0.21047287 0.04330515 -0.021562604 0.31729388 -0.067372896 -0.14423792
-0.046349287 -0.30961132 0.036356974 -0.16797337 -0.009615512 0.08974236 0.08672891 -0.0553317
0.079259016 0.20721485 -0.064068355 0.029606812 0.08033846 0.025628421 0.19745967 0.2390519
-0.008286383 -0.085809566 -0.20206651 -0.33429357 -0.014927892 -0.31044337 0.20233664 -0.16055237
-0.269593 0.22875915 -0.007814092 0.26263544 -0.031076947 -0.1057668 0.049994413 0.2054391
0.07232835 0.073695146 -0.15611143 0.20168215 0.23203354 -0.1758699 0.19287677 0.12190119
0.24538091 -0.16680224 0.1471131 -0.23261797 0.1523402 0.008231495 0.11923519 -0.20356625
-0.18206282 0.13920079 -0.25356698 0.08507079 0.14160825 0.021342846 -0.19363786 -0.12441413
0.069988675 -0.22315255 0.09894 -0.20448595 -0.09421598 0.092138104 0.273555 -0.037837002
0.04960723 -0.28709635 -0.24008481 0.17231289 -0.24903896 0.022319004 0.006422109 -0.16028999
-0.033942387 0.10900572 0.2060125 0.0856146 -0.0429954 -0.23945323 -0.17861857 -0.17323773
0.24347724 0.29603413 -0.015525795 0.25424084 0.08832145 -0.049449146 0.18986887 0.21848747
-0.12011668 0.17947699 0.14673528 -0.27421278 -0.0009411316 -0.24542601 -0.2609651 0.13954392
-0.2320677 0.14740954 -0.2336492 -0.13933463 0.17827111 0.14505735 0.15334775 0.030840918
0.1953584 0.081824385 0.23369604 0.16944362 0.012224182 0.009886246 -0.05064187 -0.17431563
-0.0570424 -0.11938654 0.08481303 0.19200508 -0.1707333 -0.029894713 -0.23723364 0.04965562
0.23681107 0.22256403 -0.14288405 0.15017718 0.18577586 -0.16715397 0.11775546 -0.2286557
0.12250079 0.025768304 0.27178892 -0.14898875 0.0869711 -0.26645452 -0.22062095 -0.26349577
-0.091495164 -0.064051986 0.19585064 -0.077106 -0.14083692 0.07402287 -0.17041625 0.11177472
0.00545317 0.18931784 -0.09258956 0.35645133 -0.20874004 0.19946766 -0.10412788 -0.20785305
0.21670453 -0.19396715 0.13992864 -0.3258573 0.12171282 -0.119785085 -0.098549485 0.039856423

V f4 [64, 1]
00000000: dee0 c93e e40e 0ebf 8485 09bf 74e9 d13e
00000010: 30e3 8d3e 97e3 083f e71e eb3e ec18 dbbe
00000020: 32dd c1be 3432 11bf 5db3 f93e 2df7 a43e
00000030: 3e39 03bf b661 b93e 67e3 b3be f860 fd3e
00000040: 82bb 1b3f 8252 bf3e 085f 12bf 73d5 df3e
00000050: c04e d63e cce7 c1be e153 d7be 66ce cabe
00000060: 7211 28bf 0057 debe 0fa9 ea3e 4c33 0f3f
00000070: 1009 013f adc0 da3e 7d4a a5be e32f b33e
00000080: 3cf9 ce3e 46a5 16bf 37c1 e43e e29f 05bf
00000090: fac9 0bbf ca78 93bd 2cfc 01bf 51c2 16bf
000000a0: 47b3 a1be cbc6 c9be 5983 c1be de6f 0d3f
000000b0: 4e81 f33e 90b7 ff3e 8c2e c6be bc0a 1c3f
000000c0: 3ac2 a3be 7f7e ae3e d443 753e 1729 bdbe
000000d0: c2ad 183f b5ba 17bf fb46 0f3f c5d9 b63e
000000e0: 1db9 0ebf 571d aebe 2276 153f dff7 d73e
000000f0: 9e3b 30bf 05db b23e 2def b03e 9952 89be
0.39429373 -0.5549147 -0.53719354 0.40998423 0.27712393 0.53472275 0.45922014 -0.4279245
-0.3786407 -0.5671723 0.48769656 0.3221983 -0.5125922 0.3620736 -0.35134432 0.49488044
0.6083299 0.37367636 -0.57176256 0.43717536 0.41856956 -0.3787216 -0.42056182 -0.39610595
-0.6565162 -0.4342575 0.45832106 0.5593765 0.50404453 0.42725125 -0.32283393 0.34997472
0.40424526 -0.5884594 0.4467866 -0.52197087 -0.54605067 -0.07200773 -0.5077541 -0.58890253
-0.3158209 -0.3940948 -0.37795523 0.5524882 0.4755959 0.49944735 -0.38707387 0.6095388
-0.3198412 0.34080884 0.23951656 -0.36945412 0.59640133 -0.5926927 0.5596768 0.3571302
-0.5575121 -0.3400676 0.5838338 0.42181298 -0.6884097 0.34932724 0.34557477 -0.2682083

nu f8 []
00000000: 7b14 ae47 e17a 843f
0.01
