models/ocnn_2020-05-21-20:33:1590107603/params.npz (npz, 990 bytes, 3 tensors)

w f4 [3, 16]
00000000: 7e1a fe3e 6a94 473e 21bf d83e 6d39 033e
00000010: 3050 e9be 9e4a 0a3f 4afa 2f3e 577f aa3e
00000020: 9998 a43e bdb7 66be a5c4 52be 1fd2 f3be
00000030: c1cd d9bd 9887 8e3d 9a97 f2bd 6835 f83e
00000040: 84c4 62be 1b09 61be 9cc4 a8bd aff8 bf3e
00000050: 3600 f23e 2c0a 943e bc66 aabe 2258 113e
00000060: 5848 593e 2b7d 583e 95ed 133f bfd9 aabe
00000070: 0815 4a3e ada2 a93e 0877 d23e 3061 39be
00000080: 29be 083f 8265 1a3f ca9f bebe bfcb 243e
00000090: bd16 893e e4ac bf3e 3a13 3b3d 3d3e 3e3e
000000a0: da2d 303e 50f7 183e cbc2 0c3f 14f0 703e
000000b0: 6396 b93e 29f5 a63d 6b89 e53e 5893 98be
0.49629587 0.19490209 0.4233332 0.12814875 -0.4556899 0.54020107 0.17185321 0.33300278
0.32147673 -0.22531028 -0.20582826 -0.47621247 -0.106349476 0.06959456 -0.11845322 0.48478246
-0.22145277 -0.2197613 -0.08240625 0.37494418 0.47265786 0.2891401 -0.33281505 0.14193776
0.21219003 0.21141498 0.57784396 -0.33369252 0.19734585 0.33131924 0.4110644 -0.1810348
0.5341516 0.6031114 -0.37231284 0.16093348 0.2677516 0.37436593 0.045672633 0.1857843
0.17204991 0.14938092 0.5498473 0.23529083 0.36247548 0.08152229 0.44831404 -0.29799914

V f4 [16, 1]
00000000: 2511 213e 2d6e cc3d 9b80 fbbe 91f1 d93d
00000010: 6d08 a03e a230 1b3f 1f7a 003f 487d adbe
00000020: bbb3 6fbd beb5 a1be 32ee 293f 91c3 c93e
00000030: c667 ebbe c54d 733e e69e 6f3d b1e9 eb3e
0.15729196 0.09981952 -0.49121556 0.10641778 0.31256428 0.6062108 0.5018634 -0.33884645
-0.058521014 -0.3158397 0.6637908 0.39407018 -0.4597761 0.23760135 0.058501147 0.4607673

nu f8 []
00000000: 7b14 ae47 e17a 843f
0.01
