models/ocnn_2020-05-22-08:16:1590149791/params.npz (npz, 1246 bytes, 3 tensors)

w f4 [3, 32]
0	0xbe244246	-0.16040906
1	0xbe33dae9	-0.17563976
2	0x3d665d03	0.056241047
3	0xbe381f48	-0.17980683
4	0xbe163ab1	-0.14670826
5	0xbe9eae8b	-0.3099254
6	0x3e80c5f9	0.2515104
7	0x3e6da1a7	0.23206197
8	0xbe700575	-0.23439582
9	0x3d34df40	0.04415822
10	0x3e34ca39	0.17655267
11	0x3e879c44	0.2648641
12	0x3e4115ca	0.18855968
13	0xbdfaf538	-0.12253803
14	0x3dc72212	0.09723295
15	0xbe7d013b	-0.247075
16	0xbcb9507c	-0.022621386
17	0xbeb7faff	-0.35933682
18	0x3ebedffb	0.3728026
19	0x3d5c3ed8	0.05377087
20	0xbe0ba70b	-0.1363794
21	0x3d838aca	0.06422956
22	0x3dcd79ee	0.10033022
23	0x3e8d45af	0.27592227
24	0x3db7e08d	0.089783765
25	0x3de50b43	0.111837886
26	0x3ec51700	0.3849411
27	0xbc818e46	-0.015814912
28	0x3d044150	0.03228885
29	0xbe1620f4	-0.14661008
30	0x3ec994b1	0.39371255
31	0x3e3c4c23	0.18388419
32	0x3b62b173	0.0034590631
33	0x3d569b74	0.052394345
34	0x3e940e3e	0.28917116
35	0x3d574af5	0.05256172
36	0xbe41a2dc	-0.18909782
37	0x3e9ed752	0.3102365
38	0x3db1e068	0.0868538
39	0xbec3711c	-0.38172233
40	0x3df588e9	0.11989004
41	0xbf12535a	-0.57158434
42	0x3e1f01eb	0.15528075
43	0x3db2d98b	0.08732899
44	0xbf0943f8	-0.5361934
45	0xbe8a2933	-0.26984558
46	0x3ddf074f	0.10890066
47	0x3e9f3832	0.3109756
48	0x3e186df8	0.148857
49	0xbe68ea86	-0.22745714
50	0xbe254eb9	-0.16143312
51	0xbe561c74	-0.20909292
52	0xbe9edfff	-0.3103027
53	0x3f161e0b	0.5863959
54	0xbea7d321	-0.32778266
55	0xbeec21bf	-0.46119496
56	0xbe6f7304	-0.23383719
57	0xbf07b106	-0.5300449
58	0x3ecccc8b	0.39999804
59	0x3e8a58b4	0.270208
60	0x3dc9d932	0.0985588
61	0x3ed271f0	0.41102552
62	0x3e9f5555	0.3111979
63	0x3bf36b33	0.0074285506
64	0x3d850212	0.064945355
65	0xbd594a88	-0.053049594
66	0x3eb2660e	0.34843487
67	0x3e69412c	0.22778767
68	0xbe0df14e	-0.13861582
69	0x3d80aeae	0.062833175
70	0xbed6f72d	-0.41985455
71	0x3dee979b	0.1165001
72	0x3eac17df	0.33611962
73	0xbe43bffe	-0.19116208
74	0xbe6a0a70	-0.22855544
75	0x3e25ba92	0.16184452
76	0xbd831d06	-0.0640202
77	0x3adab14d	0.001668492
78	0xbe8576ca	-0.2606719
79	0xbe909766	-0.28240508
80	0x3e8c6a14	0.2742468
81	0xbde4477b	-0.11146446
82	0xbeec8397	-0.46194145
83	0xbed04cdc	-0.4068364
84	0x3e8d2df4	0.27574122
85	0xbdbb93f7	-0.091590814
86	0xbef2f698	-0.4745376
87	0xbcb3c0be	-0.021942493
88	0xbe8073d9	-0.25088385
89	0x3d7a0199	0.06103668
90	0x3e169a4d	0.14707299
91	0x3eae0c48	0.33993745
92	0x3e7681a4	0.24072891
93	0x3da62953	0.08113351
94	0xbeb4e6b2	-0.35332257
95	0xbe64cda3	-0.22344069

V f4 [32, 1]
0	0xbc08a4e5	-0.008340095
1	0xbd718fb4	-0.058974937
2	0xbea83f21	-0.32860664
3	0x3dd81b52	0.10552086
4	0x3dba4a57	0.090962104
5	0x3eecf346	0.46279353
6	0x3e64e7ed	0.22354098
7	0xbec4f802	-0.38470465
8	0xbc8b5b09	-0.017011182
9	0xbeb9b53a	-0.36271077
10	0x3eaf1fb4	0.34203875
11	0x3e43b784	0.19112974
12	0xbeeee1dd	-0.46656695
13	0x3d15d085	0.036575813
14	0xbde43e7a	-0.11144729
15	0x3e4761c7	0.19470893
16	0x3ea23402	0.31680304
17	0x38f597fc	0.0001171082
18	0xbef55f82	-0.4792443
19	0x3ce2015b	0.027588537
20	0x3d6ebd88	0.05828622
21	0x3d9f0a2b	0.07765611
22	0xbe2febcb	-0.17179792
23	0xbe99d2a9	-0.30043533
24	0xbeb0d366	-0.34536284
25	0xbee278e1	-0.44232848
26	0x3e92432d	0.28566876
27	0x3ee6c6ef	0.4507365
28	0x3ea25fd6	0.31713742
29	0x3e0caf61	0.13738777
30	0xbdfdaf28	-0.12386924
31	0x3d93c365	0.07215003

nu f8 []
0	0x3f847ae147ae147b	0.01
