models/ocnn_2020-05-21-20:41:1590108060/params.npz (npz, 1246 bytes, 3 tensors)

w f4 [3, 32]
0	0x3e25c805	0.16189583
1	0xbd6c7e6f	-0.057737764
2	0x3eff342b	0.49844489
3	0x3e386e75	0.18010886
4	0xbe93371d	-0.28752986
5	0x3e5c5914	0.21518356
6	0x3e35e904	0.1776467
7	0x3edadf8d	0.4274868
8	0x3eb9f39a	0.36318666
9	0x3c9acfb7	0.018897874
10	0xbeb66b32	-0.3562866
11	0xbf10ea5b	-0.566076
12	0x3ddbc2fc	0.1073055
13	0x3dd40af9	0.10353655
14	0xbd942307	-0.072332434
15	0x3ee47b19	0.44625166
16	0xbeb188eb	-0.34674773
17	0xbde32bed	-0.110923626
18	0x3dba4dff	0.09096908
19	0x3dad4aea	0.08461554
20	0x3e222a51	0.15836455
21	0x3d2b004f	0.04174834
22	0xbe3c613e	-0.1839647
23	0x3e8d7b4f	0.2763314
24	0x3ebafcc3	0.36520967
25	0x3eae3412	0.34024101
26	0x3e73a092	0.23791721
27	0xbe409e1f	-0.18810318
28	0x3eab1c0e	0.33419842
29	0x3d1089ba	0.035287596
30	0x3f03383d	0.5125769
31	0xbdad9ace	-0.08476792
32	0x3efab21a	0.48964006
33	0x3f076002	0.5288087
34	0xbeb70c46	-0.3575155
35	0xbd7ab3df	-0.061206695
36	0x3c1b79a7	0.009489453
37	0x3eb52ffc	0.35388172
38	0xbe311058	-0.17291391
39	0x3d85de48	0.065365374
40	0x3ddc9716	0.10771005
41	0x3d3007d2	0.042976208
42	0x3efc93d7	0.49331543
43	0x3e8e55eb	0.27799925
44	0x3e4bb004	0.19891363
45	0xbe186150	-0.14880872
46	0x3ed3eb1a	0.41390306
47	0xbec9f6e2	-0.3944617
48	0x3eee4c54	0.4654261
49	0xbf016539	-0.5054508
50	0xbea13ffa	-0.31494123
51	0x3d237b5a	0.03991256
52	0x3e2207bd	0.15823264
53	0x3e60499d	0.21903081
54	0x3e60feab	0.21972148
55	0xbe61fcd2	-0.220691
56	0xbf051447	-0.51984066
57	0xbde602be	-0.11230992
58	0x3f0a1136	0.5393251
59	0xbed9df06	-0.42552966
60	0xbe875e88	-0.2643931
61	0xbe853f1a	-0.26024705
62	0xbefbf042	-0.4920674
63	0xbb4a34be	-0.003085419
64	0xbd5ace84	-0.053419605
65	0x3ea8901b	0.32922444
66	0xbe91de98	-0.28490138
67	0xbe630c16	-0.22172579
68	0xbefbe899	-0.49200895
69	0x3eed169a	0.46306306
70	0xbef20a3f	-0.47273442
71	0x3d873f00	0.06603813
72	0xbdcc4665	-0.09974364
73	0xbe056012	-0.13024929
74	0xbe6eb6c4	-0.23311907
75	0xbe19a321	-0.15003635
76	0x3e8b0448	0.27151704
77	0xbeeae4d5	-0.4587771
78	0x3ea93d41	0.33054546
79	0xbd640b94	-0.055675104
80	0x3ec65b53	0.3874155
81	0xbe1c5c93	-0.1526969
82	0x3d3ddfd4	0.046356037
83	0x3e909e0e	0.28245586
84	0x3ebda305	0.37038437
85	0x3e3c14ae	0.18367264
86	0xbe81a420	-0.2532053
87	0x3dd01cff	0.101617806
88	0xbee81e0a	-0.45335418
89	0x3e5e3bcf	0.21702503
90	0x3ebf08c4	0.37311375
91	0xbde08872	-0.10963525
92	0xbe5b70f0	-0.21429801
93	0x3ee7253f	0.45145604
94	0xbe174173	-0.1477106
95	0xbec909f3	-0.39265403

V f4 [32, 1]
0	0x3e63cf46	0.22247037
1	0x3e16a277	0.14710413
2	0xbf07fe78	-0.53122663
3	0x3e401a37	0.1876
4	0x3eab4326	0.33449668
5	0x3f02d31b	0.5110337
6	0x3ee6f78e	0.45110744
7	0xbe354f3e	-0.1770601
8	0xbcebf84e	-0.028804924
9	0xbe2966d8	-0.16543138
10	0x3f1437d2	0.57897675
11	0x3ed3ca04	0.41365063
12	0xbe84be80	-0.2592659
13	0x3e876aa8	0.2644856
14	0x3de9c64e	0.11414777
15	0x3ed75927	0.42060205
16	0x3eba7e24	0.36424363
17	0x3e715023	0.23565726
18	0xbee828f9	-0.4534376
19	0x3e814f09	0.25255612
20	0x3e86624d	0.26246873
21	0x3e0cbc79	0.13743772
22	0x3cf3b32c	0.029748522
23	0xbde18ed1	-0.11013568
24	0xbec4241b	-0.38308796
25	0xbe734a9c	-0.2375893
26	0x3eaaecbb	0.33383736
27	0x3f09b4f2	0.53791726
28	0x3ec31025	0.38098255
29	0x3e5660a5	0.20935304
30	0xbe22a7ce	-0.15884325
31	0x3ea1288d	0.3147625

nu f8 []
0	0x3f847ae147ae147b	0.01
