models/ocnn_2020-05-21-20:55:1590108944/params.npz (npz, 1246 bytes, 3 tensors)

w f4 [3, 32]
00000000: d732 5a3e 58d6 00bd 70ec f23e 43c7 22bd
00000010: db59 febe a528 753e 58f2 12bd 863f cf3e
00000020: 20f2 ca3e ff0f 67bb 4a79 a0be 8539 02bf
00000030: eac7 ac3d fe49 dbbd 4ec4 9cbb 28a8 463e
00000040: b5f5 a4be 4856 a3be a55c cd3d d051 e53d
00000050: 26ed 3b3e 231e 853d 5069 50be 15c7 853e
00000060: 098b a13e 7d7c a23e 7273 863e fae5 cdbe
00000070: 7834 ce3d 901d ba3d 6434 ed3e c3d2 96be
00000080: 31d6 e03e a59f fe3e 64ae a5be 31a1 113e
00000090: 110e 783e 1a8e a83e 39f5 a13d 7fad b33d
000000a0: 4c38 9e3d 04fc 843d 122d e73e bd39 653e
000000b0: 53e9 623e fa4f d93d f01b ab3e 62d1 33be
000000c0: d865 e13e 4c8c 7ebe 2958 a7be c036 393c
000000d0: c62e 073e 3f88 3a3e abc6 733e f2f1 52be
000000e0: daef 01bf 0db5 b7bd da90 033f 654e 31be
000000f0: d711 ffbc 7c41 a1be db64 eabe f9e6 6b3e
00000100: 1e39 d6bd 35c1 983e 6084 80be 2134 8bbb
00000110: 6c13 85be c4c4 e03e 1036 63be c6df b33d
00000120: 8aef 07be 8d01 dfbd d9b3 8dbe eb94 54be
00000130: bd54 963e c053 52be 1b9a 813e 888f 293e
00000140: a1c5 b93e 9c9d d03d c440 f53c 4876 823e
00000150: 9388 b03e 57bc 173e 590d 71be 0b3d ef3d
00000160: 1c8b e1be 2ccb 743e 3959 b23e c6a7 103e
00000170: 699a 8e3c 76fb cc3e 6294 e3bd 1cde 23be
0.21308456 -0.031454414 0.47446012 -0.039740812 -0.4967793 0.23941286 -0.03587565 0.40478152
0.39637852 -0.0035257337 -0.31342536 -0.5086902 0.08436568 -0.10707472 -0.0047841435 0.19400084
-0.3221871 -0.31901765 0.10027436 0.11197245 0.18352184 0.06499889 -0.20352674 0.2612845
0.31551388 0.31735602 0.26259953 -0.4021452 0.10068601 0.0908767 0.46329033 -0.29457673
0.43913415 0.49731174 -0.32359612 0.14221646 0.24224116 0.32920915 0.07908101 0.08773326
0.077255815 0.06493381 0.45151573 0.22385307 0.22159319 0.106109574 0.33419752 -0.17560342
0.44023013 -0.24858207 -0.32684448 0.011304557 0.13201436 0.18216036 0.23806255 -0.20600107
-0.5075661 -0.089700796 0.513929 -0.17315061 -0.031136436 -0.31495273 -0.45780072 0.23037328
-0.10460113 0.29834905 -0.25100994 -0.0042481576 -0.2599138 0.4390012 -0.22188592 0.08782916
-0.1327497 -0.10888968 -0.27676275 -0.20759933 0.29361525 -0.2053976 0.25312886 0.16558659
0.3628359 0.101863116 0.02993811 0.25480866 0.34479198 0.1481794 -0.23540248 0.11681565
-0.44051445 0.23905629 0.34833696 0.141265 0.017407613 0.400356 -0.11112286 -0.16002697

V f4 [32, 1]
00000000: ffdc debc e413 fa3d 5fa2 03bf 20d1 82bd
00000010: 2f24 8e3d 73de f83e a361 4d3e 7603 49be
00000020: 9688 03be 2c84 3abe d580 a73e ef50 083e
00000030: 0f09 90be 3fa9 4f3c b4d4 b93d b99d 2f3e
00000040: ebe0 ad3e a6fe afbc 0adb 02bf 40e7 5b3e
00000050: 0aa3 713e 5260 db3d d1ef 213c 683f f7bd
00000060: b2a6 bcbe 43c0 83be 5023 9e3e 5930 8e3e
00000070: 25cb 063e f2c9 c9bc d21e 10be 3639 583d
-0.027204989 0.12210825 -0.51419634 -0.06387544 0.06940495 0.48607215 0.20056777 -0.19630226
-0.12845072 -0.18214482 0.3271548 0.13312124 -0.2813191 0.012674629 0.09073773 0.1715001
0.3396066 -0.02148373 -0.5111548 0.21474934 0.2359735 0.10711731 0.009883837 -0.12072641
-0.36845928 -0.25732622 0.30886316 0.2777126 0.13163431 -0.024632428 -0.14074257 0.052788936

nu f8 []
00000000: 7b14 ae47 e17a 843f
0.01
