models/ocnn_2020-05-17-18:18/params.npz (npz, 830 bytes, 3 tensors)

w f4 [3, 6]
0	0x3e90617a	0.2819937
1	0xbe1f62f5	-0.15565093
2	0x3f872054	1.0556741
3	0xbe80ed2c	-0.25180948
4	0xbf8d5553	-1.1041664
5	0x3eb4a62b	0.35283026
6	0x3ef10d90	0.4708066
7	0x3f6c6b55	0.92351276
8	0x3e7aaac4	0.24479204
9	0x3df3b4ec	0.118997425
10	0xbdb0f55d	-0.08640549
11	0xbef0d711	-0.47039083
12	0x3e9851f7	0.29750034
13	0x3ea062c7	0.3132536
14	0xbeced11a	-0.40393907
15	0x3f6961ee	0.91165054
16	0xbdcffc1a	-0.101555064
17	0xbdd96cb8	-0.106164396

V f4 [6, 1]
0	0x3e998173	0.29981574
1	0x3ebb5a51	0.36592343
2	0xbf86b223	-1.0523113
3	0x3ebf9307	0.3741686
4	0x3d5bc088	0.05365041
5	0x3efe86d6	0.49712247

nu f8 []
0	0x3f847ae147ae147b	0.01
