models/ocnn_2020-05-17-20:36/params.npz (npz, 1246 bytes, 3 tensors)

w f4 [3, 32]
00000000: a653 5a3e 7e57 d9bc 0a1e f23e 1b73 2cbd
00000010: ece6 fdbe a6c9 763e f077 0ebd a0b0 ce3e
00000020: dc23 ca3e 56fb 96bb 91dd 9fbe d3f6 01bf
00000030: 516c aa3d 7104 dabd cec9 583a eebf 473e
00000040: fa13 a4be b032 a3be 7217 ca3d f2a9 e93d
00000050: b2fc 3d3e 83b7 993d ead8 50be db43 853e
00000060: 54ae a03e 67e7 a13e 475c 873e 3c4d cdbe
00000070: 6e47 d03d 0b47 ba3d b076 eb3e 8966 96be
00000080: b37c e03e 850a ff3e 629a a5be 4c32 0f3e
00000090: 7ba6 773e ca7a a83e d84e a13d 3d54 b43d
000000a0: 3435 9e3d a4a3 853d df07 e73e aadf 643e
000000b0: 3537 633e 814e d83d f072 ae3e b226 34be
000000c0: 2858 e13e 7830 7fbe 4845 a7be 0f08 3a3c
000000d0: 522c 073e 9ecc 3d3e 625a 743e 9596 52be
000000e0: 2ee8 01bf e816 b7bd 2f8b 033f eb99 31be
000000f0: f7f2 00bd 6c97 a1be a198 eabe c27a 6b3e
00000100: 1678 d7bd 63f5 983e 8964 80be 85eb ccbb
00000110: 3e49 85be 6fa5 e03e 6f93 63be b99a b43d
00000120: 35da 07be 4b46 debd 71df 8dbe 00f7 54be
00000130: 9281 963e 2ad1 52be 8b9c 843e ce30 293e
00000140: 20aa b93e 5e70 cf3d eb2f f73c a769 823e
00000150: 9475 b03e 3afe 193e b482 70be c202 f03d
00000160: 786e e1be af25 753e 483f b23e 1050 103e
00000170: 4387 8b3c 9faf cc3e e9d3 e3bd d34c 24be
0.21320972 -0.026530977 0.47288543 -0.04210196 -0.49590242 0.2410036 -0.03478235 0.4036913
0.39480484 -0.0046075983 -0.3122373 -0.5076725 0.08321441 -0.106453784 0.00082698173 0.19506809
-0.3204649 -0.3187461 0.09867753 0.114093676 0.18553427 0.07505705 -0.20395246 0.26028332
0.31383002 0.31621858 0.2643759 -0.40097988 0.10169874 0.090955816 0.4598899 -0.29375103
0.43845138 0.49812713 -0.32344347 0.1398403 0.24184601 0.3290618 0.078763664 0.0880513
0.077249914 0.065253526 0.45123193 0.22350946 0.22189029 0.105618484 0.34072065 -0.17592886
0.4401257 -0.24920833 -0.32670045 0.01135446 0.132005 0.18535087 0.23862603 -0.20565255
-0.50744903 -0.08939916 0.5138425 -0.17343871 -0.03148171 -0.31560838 -0.45819572 0.22996047
-0.105209514 0.29874715 -0.25076702 -0.006253662 -0.26032442 0.43876216 -0.2222421 0.088185735
-0.13266833 -0.10853251 -0.27709535 -0.20797348 0.2939573 -0.20587602 0.25900683 0.16522524
0.36262608 0.10128854 0.030174216 0.2547123 0.34464705 0.15038386 -0.2348736 0.11719276
-0.44029593 0.23940156 0.34813905 0.14093041 0.017032271 0.39977738 -0.11124403 -0.16044931

V f4 [32, 1]
00000000: b269 babc 6baf f93d 7a7e 03bf c3cf 80bd
00000010: afa8 8c3d 02df f83e b4bc 4d3e d9d0 48be
00000020: 9fb1 00be c20d 3bbe 9401 a73e 0200 073e
00000030: ac2c 90be 1740 543c db52 b93d 8052 303e
00000040: 61ae ad3e 0eac b1bc 78d2 02bf 46a7 5d3e
00000050: 55d6 713e 9181 dc3d 5ab7 153c 8eab f6bd
00000060: 6b77 bcbe 6ec3 83be db25 9e3e 378b 8d3e
00000070: 235d 073e f841 b9bc 138f 0fbe c8e8 563d
-0.022755478 0.121916614 -0.5136486 -0.062896274 0.06868111 0.4860764 0.20091516 -0.19610919
-0.12567757 -0.18266967 0.32618392 0.13183597 -0.28159082 0.012954733 0.090490066 0.17218971
0.33922103 -0.021688487 -0.511024 0.21645841 0.23616917 0.107669 0.009137953 -0.1204444
-0.3680986 -0.2573504 0.30888256 0.27645275 0.13219123 -0.022614464 -0.14019422 0.05246809

nu f8 []
00000000: 7b14 ae47 e17a 843f
0.01
