models/ocnn_2020-05-17-18:20/params.npz (npz, 1246 bytes, 3 tensors)

w f4 [3, 32]
000000 65 18 5b 3e 24 31 d4 bc 5a b4 f1 3e 48 84 2c bd
       0.21396025 -0.025902338 0.4720791 -0.04211834
000010 fd 7d fd be 03 9d 77 3e b9 2b 0b bd 14 47 ce 3e
       -0.49510184 0.24180989 -0.033977244 0.40288603
000020 0e af c9 3e 76 61 b1 bb f5 73 9f be 2c c2 01 bf
       0.3939137 -0.0054132296 -0.31143156 -0.5068691
000030 d1 c5 a8 3d fa 64 d8 bd b7 16 5f 3b 03 93 48 3e
       0.082408555 -0.10566135 0.0034040639 0.1958733
000040 84 aa a3 be 0a cd a2 be b9 70 c8 3d e1 52 eb 3d
       -0.3196603 -0.31797057 0.09787125 0.11490417
000050 63 ce 3e 3e bb 40 9b 3d a5 a6 51 be 7f da 84 3e
       0.18633418 0.07580706 -0.20473726 0.2594795
000060 d1 44 a0 3e cb 7d a1 3e a6 c5 87 3e 5b e3 cc be
       0.31302503 0.31541285 0.2651798 -0.40017208
000070 04 ed d1 3d 43 e1 bb 3d 3f 16 eb 3e c0 fd 95 be
       0.10250285 0.09173825 0.4591541 -0.29295158
000080 34 1a e0 3e e6 b8 fe 3e b3 31 a5 be 37 33 0f 3e
       0.4376999 0.4975044 -0.3226448 0.1398438
000090 01 d6 76 3e 1c 12 a8 3e f4 ab 9f 3d 3b f7 b5 3d
       0.24105074 0.32826316 0.07796469 0.08885046
0000a0 43 08 a0 3d e1 46 87 3d 1a 9f e6 3e 77 0e 64 3e
       0.07814076 0.06605316 0.4504326 0.22271143
0000b0 c5 08 64 3e 52 b1 d6 3d 79 21 ad 3e 39 f8 34 be
       0.2226897 0.1048304 0.338146 -0.17672814
0000c0 c1 ef e0 3e 17 fb 7f be 95 dc a6 be d5 db 2c 3c
       0.43932918 -0.24998127 -0.32590166 0.010550459
0000d0 cb 5c 06 3e d1 f9 3c 3e 43 27 75 3e 52 c5 51 be
       0.13121335 0.18454672 0.23940758 -0.20485428
0000e0 f1 b3 01 bf cf 73 b5 bd 05 57 03 3f 14 6c 32 be
       -0.50665194 -0.08859979 0.51304656 -0.17424041
0000f0 0c 38 04 bd 19 fe a1 be 75 39 ea be 84 aa 6a 3e
       -0.032280013 -0.31639174 -0.4574696 0.22916609
000100 98 1c d9 bd 90 a6 98 3e 6e f4 7f be 39 dc cf bb
       -0.10601157 0.29814577 -0.24995586 -0.0063433913
000110 f2 b4 85 be 29 3b e0 3e 9c 6a 64 be 30 49 b6 3d
       -0.26114613 0.43795136 -0.22306293 0.08900678
000120 cf e9 06 be 5b 97 dc bd e3 4a 8e be 67 ce 55 be
       -0.13175128 -0.10771056 -0.2779151 -0.20879517
000130 0f ed 96 3e 23 a8 53 be 78 3f 83 3e 61 59 28 3e
       0.29477736 -0.20669608 0.2563436 0.16440345
000140 65 40 b9 3e fd c5 cd 3d 5f d5 fd 3c 91 ff 81 3e
       0.36181942 0.10047529 0.030985532 0.25390294
000150 20 0d b0 3e e1 35 19 3e 2e ac 6f be ee b1 f1 3d
       0.34385014 0.1496196 -0.23405525 0.118015155
000160 93 04 e1 be b9 fc 75 3e d3 d5 b1 3e 77 78 0f 3e
       -0.43948802 0.24022187 0.34733447 0.14010797
000170 99 cb 84 3c 1b 42 cc 3e ec 5d e2 bd 62 24 25 be
       0.016210364 0.39894184 -0.110530704 -0.1612716

V f4 [32, 1]
000000 08 66 b5 bc a6 0b f8 3d 05 4a 03 bf ee a2 7f bd
       -0.022143379 0.12111597 -0.5128482 -0.06241124
000010 1c 6a 8e 3d 43 76 f8 3e c2 93 4e 3e b6 a5 49 be
       0.069538325 0.48527727 0.20173553 -0.1969212
000020 0d 7d f8 bd 58 d4 3b be 0b 83 a7 3e ab e2 07 3e
       -0.121332265 -0.18342721 0.32717165 0.1327006
000030 4f 97 90 be b8 bc 61 3c fc 9d b7 3d 44 1e 31 3e
       -0.2824044 0.013777904 0.0896568 0.17296702
000040 23 45 ad 3e 9e 4d ab bc 09 ac 02 bf 1c ff 5c 3e
       0.3384181 -0.020911034 -0.51043755 0.21581692
000050 bf 0b 71 3e 2a f0 da 3d cc 53 09 3c bc 5b f8 bd
       0.23539637 0.10690339 0.008381795 -0.12126872
000060 f7 0d bc be 94 2f 84 be 3c bd 9d 3e 18 cf 8d 3e
       -0.36729404 -0.2581755 0.30808437 0.27697062
000070 41 2f 08 3e 61 42 bc bc 4d be 0e be a6 5d 5a 3d
       0.13299276 -0.02298087 -0.13939781 0.053311966

nu f8 []
000000 7b 14 ae 47 e1 7a 84 3f
       0.01
