models/ocnn_2020-05-23-14:13:1590257617/params.npz (npz, 1246 bytes, 3 tensors)

w f4 [3, 32]
00000000: 7c3d 24be 0dd7 33be d048 663d 9619 38be
00000010: b535 16be faab 9ebe 7dc8 803e 899c 6d3e
00000020: 630a 70be abca 343d 47cf 343e c89e 873e
00000030: a310 413e 5eeb fabd 0316 c73d 34fc 7cbe
00000040: 3727 b9bc 90f8 b7be 68dd be3e 8a52 5c3d
00000050: 19a2 0bbe 8096 833d 6a6f cd3d 1943 8d3e
00000060: 3dd6 b73d ff00 e53d 9619 c53e 2e65 81bc
00000070: ee55 043d 9f1b 16be e891 c93e 1851 3c3e
00000080: ef7c 613b 088c 563d ca10 943e 6233 573d
00000090: e7a7 41be b9d4 9e3e 3ed6 b13d 7e6e c3be
000000a0: c692 f53d 0a52 12bf d2fc 1e3e 63cf b23d
000000b0: aa42 09bf b02b 8abe e713 df3d a835 9f3e
000000c0: b968 183e 6eef 68be 8549 25be 6b21 56be
000000d0: 80e2 9ebe 721c 163f 74d0 a7be 201f ecbe
000000e0: ca6d 6fbe baaf 07bf ecc9 cc3e 1e56 8a3e
000000f0: bfce c93d 396f d23e 2758 9f3e 7cca f23b
00000100: 5df8 843d 1f5a 59bd 9e68 b23e 4a3b 693e
00000110: 5cf6 0dbe 42a4 803d bbf9 d6be 0ea2 ee3d
00000120: 591a ac3e c2ba 43be 8e0f 6abe 79b5 253e
00000130: 9412 83bd 8a30 d83a a773 85be f699 90be
00000140: 7267 8c3e 4d51 e4bd fb80 ecbe 5c4f d0be
00000150: 722b 8d3e 89a0 bbbd ebf3 f2be c596 b3bc
00000160: 3e71 80be 7316 7a3d 0e95 163e ad09 ae3e
00000170: 667c 763e 651e a63d dce3 b4be abd2 64be
-0.1603908 -0.17562504 0.056221783 -0.1797851 -0.14668925 -0.30990583 0.2515296 0.23204245
-0.23441462 0.04413859 0.17657195 0.26488328 0.18854003 -0.12251924 0.09720995 -0.24705583
-0.022601707 -0.35931826 0.37278295 0.053789653 -0.13636054 0.0642519 0.10031016 0.27590254
0.089764096 0.111818306 0.38496083 -0.015795317 0.03230851 -0.14658974 0.3936913 0.1839031
0.0034406742 0.052379638 0.2891906 0.052539237 -0.18911706 0.3102167 0.086834416 -0.38170236
0.119908854 -0.5715643 0.15526131 0.08730962 -0.53617346 -0.26986456 0.10892468 0.31095624
0.14883699 -0.22747585 -0.16141327 -0.20911185 -0.3103218 0.58637154 -0.32776225 -0.46117496
-0.23381725 -0.5300251 0.39997804 0.27018827 0.09853887 0.4110048 0.31121942 0.007409392
0.06492684 -0.05306446 0.34845442 0.22776523 -0.1386351 0.0628133 -0.41987404 0.11652003
0.33613852 -0.19114211 -0.22857496 0.16182508 -0.06400028 0.0016493958 -0.26064798 -0.28242463
0.27422673 -0.111483194 -0.46192154 -0.40685546 0.2757221 -0.09161479 -0.4745172 -0.021922478
-0.25086397 0.061056565 0.14705297 0.33991757 0.24070892 0.08111266 -0.35330093 -0.22345988

V f4 [32, 1]
00000000: 8563 08bc 967c 71bd ae41 a8be 7e10 d83d
00000010: 6354 ba3d 9ff0 ec3e 13ed 643e 31f5 c4be
00000020: a883 8bbc 9ab2 b9be 3922 af3e aeb8 433e
00000030: 3edf eebe b0e4 153d 7931 e4bd ac66 473e
00000040: 5831 a23e e001 0f39 eb5c f5be e729 e23c
00000050: 4dcf 6e3d fdff 9e3d 93e6 2fbe 09d0 99be
00000060: c0d0 b0be 3876 e2be 7840 923e 48c4 e63e
00000070: 1c5d a23e 18aa 0c3e dda3 fdbd 8bcd 933d
-0.008324509 -0.058956705 -0.3286261 0.10550021 0.09098127 0.4627733 0.22356062 -0.38468316
-0.017030552 -0.36269075 0.34205797 0.19113418 -0.46654695 0.036595047 -0.11142249 0.1947276
0.3167827 0.00013638241 -0.47922453 0.027607871 0.058303166 0.0776367 -0.17177801 -0.3004153
-0.34534264 -0.4423082 0.2856481 0.45071626 0.31711662 0.1373676 -0.1238477 0.072169386

nu f8 []
00000000: fca9 f1d2 4d62 503f
0.001
