models/ocnn_2020-05-18-22:20:1589854812/params.npz (npz, 862 bytes, 3 tensors)

w f4 [3, 8]
00000000: 31de df3e c7f0 643d c0ea 473f 0cb4 21bd
00000010: 08b2 53bf 2335 fc3e bf34 76ba e6b4 283f
00000020: 3a09 243f 6839 fdbd b3fb 01bf 98f4 22bf
00000030: 501a d03d b8be fa3d dad2 7c3d 3912 cd3e
00000040: 6efe 88be 3643 a5be 9e02 10be 23d1 f53e
00000050: bfe1 263f 586a d73e f077 d3be be9e 1e3e
0.43724206 0.055893686 0.78092575 -0.039478347 -0.8269353 0.4925929 -0.0009392015 0.6590103
0.6407658 -0.12364465 -0.5077469 -0.6365447 0.10161269 0.12243408 0.06172452 0.40052965
-0.26756614 -0.3227784 -0.14063498 0.4801112 0.6518821 0.4207332 -0.41302443 0.15490243

V f4 [8, 1]
00000000: 0416 363c 68e2 c1bd ca23 6abf b92c 9dbd
00000010: de00 ea3e 8c24 643f 2442 e93e a84b e2be
0.011113647 -0.09467012 -0.9146086 -0.07674546 0.45703787 0.89118266 0.45558274 -0.44198346

nu f8 []
00000000: 7b14 ae47 e17a 843f
0.01
