models/ocnn_2020-05-18-22:25:1589855119/params.npz (npz, 862 bytes, 3 tensors)

w f4 [3, 8]
0	0x3ee00cb1	0.43759683
1	0x3d65dc8a	0.056118526
2	0x3f47d62e	0.7806119
3	0xbd20512a	-0.039139904
4	0xbf539daa	-0.8266245
5	0x3efc5eb8	0.49291015
6	0xba221c3b	-0.0006184016
7	0x3f289fe5	0.6586898
8	0x3f23f59c	0.64046645
9	0xbdfe22db	-0.12408992
10	0xbf01f455	-0.50763446
11	0xbf231485	-0.63703185
12	0x3dcff28f	0.10153686
13	0x3dfa86d8	0.12232751
14	0x3d7c1c4d	0.061550427
15	0x3ecd2922	0.40070444
16	0xbe892689	-0.26787212
17	0xbea57bcd	-0.32321015
18	0xbe0fe00d	-0.14050312
19	0x3ef5928b	0.47963366
20	0x3f26db4e	0.6517838
21	0x3ed759b7	0.42060634
22	0xbed3909d	-0.4132127
23	0x3e1ed059	0.15509166

V f4 [8, 1]
0	0x3c3f4b3a	0.01167565
1	0xbdc16f58	-0.09445065
2	0xbf6a1aec	-0.9144733
3	0xbd9c8dda	-0.076442435
4	0x3ee9ed09	0.45688656
5	0x3f644418	0.891664
6	0x3ee95fb1	0.4558082
7	0xbee26182	-0.44215018

nu f8 []
0	0x3f847ae147ae147b	0.01
