models/ocnn_2020-05-23-14:35:1590258902/params.npz (npz, 1246 bytes, 3 tensors)

w f4 [3, 32]
-0.16259263 -0.17722432 0.058386926 -0.18138373 -0.14886515 -0.31204686 0.24936135 0.23417808
-0.23223217 0.046274118 0.1744072 0.26265767 0.19068113 -0.12470086 0.09806534 -0.24922472
-0.024733 -0.36150134 0.37492454 0.05160803 -0.13855083 0.05789644 0.10239086 0.27803147
0.091898285 0.113958165 0.38283378 -0.017935948 0.030177336 -0.14860097 0.3955682 0.18172577
0.0056461557 0.053809628 0.28694707 0.054596543 -0.18688364 0.31246912 0.08907563 -0.38395634
0.1176958 -0.5738173 0.15750512 0.08959849 -0.5384254 -0.26764178 0.107162595 0.3131968
0.15109107 -0.22527488 -0.1636656 -0.20689371 -0.3080821 0.5955786 -0.33001214 -0.46342862
-0.23607077 -0.5322774 0.4022328 0.27244073 0.10079355 0.41323707 0.30901933 0.0096398555
0.06718125 -0.051507488 0.34619465 0.22972676 -0.13637742 0.06507021 -0.4176145 0.11426386
0.3338913 -0.19339743 -0.2263151 0.16413501 -0.066257045 0.0039026346 -0.26223838 -0.2801652
0.27648148 -0.10924262 -0.46417877 -0.40460518 0.27798966 -0.08269111 -0.47675163 -0.024175948
-0.253119 0.05880004 0.1493066 0.34217432 0.24296406 0.08331353 -0.35544294 -0.22120358
00000000: af7e 26be 4b7a 35be 2127 6f3d a8bc 39be
00000010: 1b70 18be 9bc4 9fbe 9558 7f3e 61cc 6f3e
00000020: 45ce 6dbe ee89 3d3d cd97 323e 117b 863e
00000030: ea41 433e 2a63 ffbd 7bd6 c83d c434 7fbe
00000040: dc9c cabc b416 b9be 1cf6 bf3e f162 533d
00000050: 45e0 0dbe d124 6d3d 4db2 d13d 245a 8e3e
00000060: 2b35 bc3d e662 e93d ca02 c43e 69ee 92bc
00000070: 7636 f73c da2a 18be ea87 ca3e 5216 3a3e
00000080: 6303 b93b 7c67 5c3d baea 923e a0a0 5f3d
00000090: 6d5e 3fbe f4fb 9f3e 496d b63d ed95 c4be
000000a0: 7f0a f13d b1e5 12bf 0649 213e 6a7f b73d
000000b0: 3fd6 09bf 5808 89be 1078 db3d 555b a03e
000000c0: 9eb7 1a3e 75ae 66be f497 27be f2db 53be
000000d0: f0bc 9dbe d777 183f 5af7 a8be 8446 edbe
000000e0: 89bc 71be 5543 08bf 75f1 cd3e 5a7d 8b3e
000000f0: d96c ce3d cf93 d33e c837 9e3e 7cf0 1d3c
00000100: 5396 893d 84f9 52bd 6d40 b13e 7e3d 6b3e
00000110: 86a6 0bbe 8843 853d 91d1 d5be 2c03 ea3d
00000120: cdf3 aa3e fa09 46be 25bf 67be 0213 283e
00000130: c6b1 87bd 58c3 7f3b 1c44 86be d071 8fbe
00000140: fb8e 8d3e 98ba dfbd d7a8 edbe 6928 cfbe
00000150: a954 8e3e f559 a9bd ca18 f4be a30c c6bc
00000160: d098 81be 50d8 703d d4e3 183e 7931 af3e
00000170: 92cb 783e 49a0 aa3d 9efc b5be 3183 62be

V f4 [32, 1]
-0.010043803 -0.061249297 -0.32637024 0.10768752 0.08872187 0.46497625 0.22131597 -0.38676295
-0.014786167 -0.36494035 0.33981943 0.19536477 -0.468781 0.034344815 -0.11211202 0.19241582
0.31902346 -0.0021420328 -0.4814587 0.025354808 0.05650603 0.08053497 -0.17402868 -0.3026338
-0.34758258 -0.44453338 0.2879558 0.4529677 0.31934157 0.13960008 -0.1257111 0.06992849
00000000: c38e 24bc 8be0 7abd 001a a7be 468b dc3d
00000010: d0b3 b53d 5e11 ee3e a7a0 623e cb05 c6be
00000020: ae41 72bc 76d9 babe d0fc ad3e b40d 483e
00000030: 1004 f0be 26ad 0c3d fd9a e5bd a708 453e
00000040: 0b57 a33e 5961 0cbb c181 f6be e3b4 cf3c
00000050: de72 673d 85ef a43d 9334 32be d1f2 9abe
00000060: 58f6 b1be e199 e3be f16e 933e 62eb e73e
00000070: bd80 a33e 53f3 0e3e 69ba 00be ab36 8f3d

nu f8 []
0.001
00000000: fca9 f1d2 4d62 503f
