models/ocnn_2020-05-18-21:53/params.npz (npz, 1246 bytes, 3 tensors)

w f4 [3, 32]
0.21355486 -0.026325474 0.47249994 -0.04246749 -0.49551845 0.24138911 -0.034395263 0.403304
0.39432806 -0.0049953917 -0.3118501 -0.5072864 0.08282698 -0.10607605 0.0036298903 0.19545554
-0.32008162 -0.3183822 0.09829186 0.11448247 0.18591186 0.07545607 -0.20432445 0.2598967
0.31344616 0.31583107 0.2647582 -0.40059033 0.10208538 0.09133255 0.45957944 -0.29336765
0.43810418 0.49786985 -0.32304466 0.14023152 0.24145462 0.3286629 0.07836745 0.08844766
0.07774613 0.06565041 0.4508348 0.22311461 0.22228728 0.105235584 0.33782193 -0.17632529
0.4397278 -0.24957483 -0.32630107 0.010945562 0.13160984 0.18478274 0.23900184 -0.20525749
-0.50705105 -0.08900226 0.513445 -0.17383817 -0.03187684 -0.3159879 -0.45785362 0.22957017
-0.10560352 0.29851758 -0.25036007 -0.0059546833 -0.26073802 0.43835536 -0.22265582 0.088599764
-0.13215096 -0.108117536 -0.27750853 -0.20838778 0.2943707 -0.20628686 0.25603062 0.16481051
0.36222273 0.100885645 0.030581545 0.2543028 0.34425133 0.1498717 -0.23446496 0.11760774
-0.4398917 0.23981503 0.34773728 0.14051452 0.016617749 0.3993495 -0.110920005 -0.16086335
00000000: 20ae 5a3e 85a8 d7bc 83eb f13e 64f2 2dbd
00000010: 98b4 fdbe b52e 773e 0ce2 0cbd dd7d ce3e
00000020: 5ee5 c93e 62b0 a3bb d1aa 9fbe 86dd 01bf
00000030: 31a1 a93d 663e d9bd 74e3 6d3b 7f25 483e
00000040: bde1 a3be fe02 a3be 3e4d c93d c975 ea3d
00000050: ae5f 3e3e b688 9a3d 6e3a 51be 2e11 853e
00000060: 047c a03e 9cb4 a13e 638e 873e 2d1a cdbe
00000070: 2412 d13d 8f0c bb3d ff4d eb3e 4934 96be
00000080: 314f e03e cce8 fe3e 1c66 a5be da98 0f3e
00000090: e13f 773e 8146 a83e 1d7f a03d 0c24 b53d
000000a0: 5d39 9f3d b973 863d d2d3 e63e 2878 643e
000000b0: 479f 633e c185 d73d fff6 ac3e 9e8e 34be
000000c0: 0124 e13e 8b90 7fbe ef10 a7be 0455 333c
000000d0: bbc4 063e b037 3d3e e6bc 743e 052f 52be
000000e0: 19ce 01bf d146 b6bd 2271 033f a202 32be
000000f0: 4a91 02bd 2bc9 a1be ca6b eabe 7114 6b3e
00000100: a946 d8bd 4cd7 983e 322f 80be 811f c3bb
00000110: 747f 85be 1d70 e03e e3ff 63be cb73 b53d
00000120: 9552 07be ba6c ddbd 9915 8ebe 9b63 55be
00000130: c2b7 963e dd3c 53be 7216 833e 16c4 283e
00000140: 4275 b93e 229d ce3d 2686 fa3c fa33 823e
00000150: b641 b03e f877 193e 9517 70be 54dc f03d
00000160: 7c39 e1be 1292 753e 9f0a b23e 0ae3 0f3e
00000170: f221 883c 8a77 cc3e 072a e3bd 5db9 24be

V f4 [32, 1]
-0.022636004 0.12151564 -0.5132537 -0.06281497 0.069136575 0.48567483 0.20132712 -0.196521
-0.12141261 -0.18301924 0.32674235 0.13230246 -0.28199914 0.013369782 0.09005995 0.1725576
0.33882174 -0.021307254 -0.51079947 0.216107 0.23578772 0.10727294 0.008789877 -0.12085937
-0.3676978 -0.25777045 0.30848122 0.27660018 0.13258259 -0.023343427 -0.13980173 0.052903365
00000000: 246f b9bc 31dd f83d 9864 03bf 23a5 80bd
00000010: 7a97 8d3d 5faa f83e b228 4e3e cd3c 49be
00000020: 2da7 f8bd 6569 3bbe c64a a73e 4c7a 073e
00000030: 3162 90be ee0c 5b3c 5a71 b83d f1b2 303e
00000040: 0b7a ad3e 8d8c aebc c1c3 02bf 274b 5d3e
00000050: 5672 713e eab1 db3d 6b03 103c 1e85 f7bd
00000060: e342 bcbe 7dfa 83be 40f1 9d3e 8a9e 8d3e
00000070: bbc3 073e b73a bfbc 2f28 0fbe 33b1 583d

nu f8 []
0.01
00000000: 7b14 ae47 e17a 843f
