models/ocnn_2020-05-21-20:57:1590109070/params.npz (npz, 1246 bytes, 3 tensors)

w f4 [3, 32]
0	0x3e5a42b1	0.21314503
1	0xbd008775	-0.031379182
2	0x3ef2e3b7	0.47439358
3	0xbd2299b0	-0.03969735
4	0xbefe5170	-0.49671507
5	0x3e753a20	0.23947954
6	0xbd12ae3e	-0.0358107
7	0x3ecf3704	0.4047166
8	0x3ecae981	0.39631274
9	0xbb6b50c2	-0.003590629
10	0xbea070ba	-0.31336004
11	0xbf023548	-0.5086255
12	0x3daca5c4	0.08430055
13	0xbddb28e3	-0.10701158
14	0xbb9d1d73	-0.0047947704
15	0x3e46b924	0.19406563
16	0xbea4ecef	-0.32212016
17	0xbea34e2e	-0.31895584
18	0x3dcd39b5	0.10020772
19	0x3de57590	0.11204064
20	0x3e3bfef9	0.18358983
21	0x3d854754	0.065077454
22	0xbe5079a4	-0.20358902
23	0x3e85be99	0.26121977
24	0x3ea18240	0.31544685
25	0x3ea273f8	0.31729102
26	0x3e867c44	0.26266682
27	0xbecddd6b	-0.4020799
28	0x3dce5660	0.100750685
29	0x3dba3d30	0.09093702
30	0x3eed2af7	0.46321842
31	0xbe96ca65	-0.2945129
32	0x3ee0ce02	0.4390717
33	0x3efe95f4	0.4972378
34	0xbea5a586	-0.32352847
35	0x3e1194e0	0.14216948
36	0x3e77fcce	0.24217531
37	0x3ea88530	0.32914114
38	0x3da1d24f	0.07901441
39	0x3db3d060	0.08779979
40	0x3d9e5b22	0.07732226
41	0x3d851ee5	0.06500033
42	0x3ee72453	0.451449
43	0x3e65285b	0.22378676
44	0x3e62fad0	0.2216599
45	0x3dd92dcd	0.10604439
46	0x3eab1e4b	0.3342155
47	0xbe33e2d5	-0.17566998
48	0x3ee15ce5	0.44016185
49	0xbe7e9d0a	-0.24864593
50	0xbea74f40	-0.3267765
51	0x3c3815a4	0.011235628
52	0x3e071cb8	0.13194549
53	0x3e3a755d	0.18208833
54	0x3e73d78f	0.23812698
55	0xbe52e08f	-0.20593475
56	0xbf01eb65	-0.5074981
57	0xbdb7921c	-0.08963415
58	0x3f038c63	0.5138609
59	0xbe315fe0	-0.1732173
60	0xbcff9ce7	-0.031202747
61	0xbea149ab	-0.31501517
62	0xbeea5b70	-0.45772886
63	0x3e6bd5ba	0.23030749
64	0xbdd65a13	-0.10466399
65	0x3e98b780	0.298275
66	0xbe807b70	-0.25094175
67	0xbb8cbf98	-0.0042953007
68	0xbe851c22	-0.25998026
69	0x3ee0bbd4	0.438933
70	0xbe63479b	-0.22195284
71	0x3db402db	0.08789607
72	0xbe07ddff	-0.13268279
73	0xbddede83	-0.108822845
74	0xbe8dbca9	-0.27683
75	0xbe54a666	-0.20766601
76	0x3e965d8b	0.29368243
77	0xbe5264ec	-0.20546311
78	0x3e819c31	0.25314477
79	0x3e297e02	0.16551974
80	0x3eb9bca2	0.36276728
81	0x3dd07bdf	0.101798765
82	0x3cf5cfd9	0.030006336
83	0x3e826d36	0.25473946
84	0x3eb07f83	0.34472284
85	0x3e17a95d	0.148107
86	0xbe70fc5c	-0.23533767
87	0x3def5ff7	0.11688226
88	0xbee18223	-0.440446
89	0x3e74dcc2	0.23912337
90	0x3eb25036	0.3482682
91	0x3e109630	0.14119792
92	0x3c8e0e8d	0.017340923
93	0x3eccf338	0.4002931
94	0xbde36ea4	-0.111050874
95	0xbe23ef70	-0.16009307

V f4 [32, 1]
0	0xbcde7d46	-0.027159344
1	0x3df9efe8	0.122039616
2	0xbf039de5	-0.514128
3	0xbd82b687	-0.063824706
4	0x3d8e468e	0.06947051
5	0x3ef8d55f	0.4860029
6	0x3e4d72f1	0.20063378
7	0xbe4914bc	-0.19636816
8	0xbe038123	-0.1284223
9	0xbe3a94a3	-0.18220763
10	0x3ea788b7	0.32721493
11	0x3e0861d6	0.13318571
12	0xbe9011d1	-0.28138593
13	0x3c50bdcc	0.012740564
14	0x3db9b1ab	0.090670906
15	0x3e2fae88	0.17156422
16	0x3eadd7fb	0.33953843
17	0xbcaf76fe	-0.021419045
18	0xbf02d60d	-0.51107866
19	0x3e5bd3b7	0.21467482
20	0x3e71907c	0.23590273
21	0x3ddb3afd	0.107046105
22	0x3c20e5d7	0.009820423
23	0xbdf76022	-0.12078883
24	0xbebc9dc5	-0.3683912
25	0xbe83c8f6	-0.2573926
26	0x3e9e1a41	0.30879405
27	0x3e8e3816	0.27777165
28	0x3e06dc1e	0.13169906
29	0xbcc96843	-0.024585849
30	0xbe100cee	-0.14067432
31	0x3d587bdc	0.052852497

nu f8 []
0	0x3f847ae147ae147b	0.01
