models/ocnn_2020-05-17-20:20/params.npz (npz, 1246 bytes, 3 tensors)

w f4 [3, 32]
0.2136514 -0.02621347 0.47239587 -0.042392507 -0.4954172 0.24149317 -0.034293067 0.40320194
0.39422587 -0.0050975033 -0.3117474 -0.5071845 0.08272454 -0.1059758 0.0035970833 0.19555755
-0.3199773 -0.31828356 0.098187864 0.11458788 0.18601726 0.07556332 -0.20442374 0.25979492
0.31334186 0.31572866 0.26486284 -0.40048802 0.10218726 0.09142913 0.45947033 -0.29326662
0.43800658 0.4977635 -0.3229417 0.14015143 0.24135348 0.32856 0.078265704 0.08854943
0.07784707 0.06575215 0.45073274 0.22301303 0.22238925 0.10513508 0.33786634 -0.17642696
0.4396246 -0.2496743 -0.32619822 0.010841934 0.13150615 0.18468903 0.23910162 -0.20515601
-0.50694776 -0.08890037 0.5133417 -0.17394009 -0.031978413 -0.31608546 -0.457748 0.22946912
-0.105701976 0.2984104 -0.2502563 -0.006034893 -0.26084006 0.43825167 -0.2227585 0.08870239
-0.13204893 -0.108014986 -0.2776113 -0.20849025 0.29447353 -0.2063882 0.25607198 0.16470805
0.36211857 0.10078547 0.030685266 0.25419822 0.3441467 0.14977585 -0.23436432 0.11771004
-0.43978763 0.23991783 0.34763312 0.14041175 0.016515333 0.39925104 -0.11081347 -0.16096523
00000000: 6fc7 5a3e a2bd d6bc dfdd f13e c4a3 2dbd
00000010: 53a7 fdbe fc49 773e e376 0cbd 7c70 ce3e
00000020: f9d7 c93e f508 a7bb 5b9d 9fbe d8d6 01bf
00000030: 7c6b a93d d709 d9bd 0bbd 6b3b 3d40 483e
00000040: 11d4 a3be 10f6 a2be b816 c93d 0dad ea3d
00000050: 4f7b 3e3e f1c0 9a3d 7554 51be d703 853e
00000060: 586e a03e 30a7 a13e 1a9c 873e c40c cdbe
00000070: 8e47 d13d 323f bb3d b23f eb3e 0b27 96be
00000080: 6642 e03e dcda fe3e 9d58 a5be db83 0f3e
00000090: 5e25 773e 0439 a83e c549 a03d 6759 b53d
000000a0: 496e 9f3d 10a9 863d 71c6 e63e 875d 643e
000000b0: 02ba 633e 1051 d73d d1fc ac3e 45a9 34be
000000c0: 7a16 e13e 9faa 7fbe 7403 a7be 5ea2 313c
000000d0: 8ca9 063e 1f1f 3d3e 0ed7 743e 6b14 52be
000000e0: 54c7 01bf 6611 b6bd 5d6a 033f 5a1d 32be
000000f0: ccfb 02bd f4d5 a1be f25d eabe f4f9 6a3e
00000100: 477a d8bd 3fc9 983e 9821 80be 5ac0 c5bb
00000110: d48c 85be 8662 e03e ce1a 64be 99a9 b53d
00000120: d637 07be f636 ddbd 1123 8ebe 787e 55be
00000130: 3cc5 963e 6e57 53be de1b 833e 3aa9 283e
00000140: 9b67 b93e 9d68 ce3d ab5f fb3c 4526 823e
00000150: ff33 b03e d75e 193e 33fd 6fbe f611 f13d
00000160: d82b e1be 05ad 753e f8fc b13e 19c8 0f3e
00000170: 2a4b 873c a26a cc3e 2cf2 e2bd 12d4 24be

V f4 [32, 1]
-0.022545075 0.12141204 -0.51314956 -0.06272887 0.06923707 0.48557097 0.20142913 -0.19662182
-0.1213729 -0.18311782 0.3268403 0.13240129 -0.28210142 0.013471541 0.08995778 0.17265776
0.33871806 -0.021208148 -0.5106923 0.21600762 0.23568279 0.107169926 0.008690602 -0.12095751
-0.36759418 -0.25787205 0.30837753 0.2766903 0.13268346 -0.023265446 -0.13969794 0.05300258
00000000: 73b0 b8bc e0a6 f83d c55d 03bf fe77 80bd
00000010: 2acc 8d3d c29c f83e 7043 4e3e 3b57 49be
00000020: 5b92 f8bd 3d83 3bbe 9d57 a73e 3494 073e
00000030: 996f 90be bdb7 5c3c c93b b83d 32cd 303e
00000040: 746c ad3e b6bc adbc bbbc 02bf 1a31 5d3e
00000050: d456 713e e87b db3d 0763 0e3c 92b8 f7bd
00000060: 4e35 bcbe ce07 84be a9e3 9d3e 5aaa 8d3e
00000070: 2cde 073e 2d97 bebc fa0c 0fbe 3c19 593d

nu f8 []
0.01
00000000: 7b14 ae47 e17a 843f
