models/ocnn_2020-05-18-21:421589852576/params.npz (npz, 3294 bytes, 3 tensors)

w f4 [9, 64]
000000 90 d1 8e 3e b6 85 03 3e c9 b6 46 3e db 37 9f 3d
       0.27894258 0.12843975 0.19405665 0.077743255
000010 c5 73 58 be 35 1b 99 3e 15 3d dd 3d 87 44 18 3e
       -0.21137913 0.2990357 0.10802666 0.14869891
000020 a8 e7 12 3e c3 87 0a be 74 20 ae bd 6e 39 62 be
       0.14346182 -0.13528351 -0.08502284 -0.2209222
000030 7e aa 96 bd 2a 5e 6e 3d 14 e3 cc bd d4 17 88 3e
       -0.073567376 0.05819527 -0.10004249 0.2658068
000040 f3 e0 b7 bd bf 72 bf bd 5f 8e 84 bd b3 4f 5b 3e
       -0.089784525 -0.09348058 -0.06472468 0.21417122
000050 b6 cf 86 3e ae e8 d6 3e 49 c1 8b be 1e 53 45 3d
       0.26330346 0.41974396 -0.27295902 0.04817497
000060 26 6e ae 3d 6e db b1 3d 56 4e a2 3e 78 04 16 be
       0.08517103 0.08684431 0.3170039 -0.14650142
000070 ca c3 4d 3e a6 2b 47 3e 9f 20 40 3e fd 3a 97 bd
       0.20094219 0.19450244 0.18762444 -0.07384298
000080 99 22 99 3e d7 ca 52 3e 57 d0 ba bd c6 06 8a bc
       0.29909208 0.2058519 -0.09121769 -0.016848933
000090 9e 52 10 3d 90 54 4c 3e 4f 9b 9d bd ff 63 91 3d
       0.03523504 0.19954133 -0.076956384 0.07099151
0000a0 3a 56 8d 3d 0c 52 66 3d 9a e0 39 3e 50 1b 15 3e
       0.06901212 0.05623059 0.18152085 0.145612
0000b0 5b 16 93 3e 79 ba 80 3d 6d 25 4e 3e a2 32 08 be
       0.28727993 0.06285567 0.20131464 -0.13300565
0000c0 61 8a 34 3e 8b 38 38 be 75 c4 c4 bd 4c 22 fe bd
       0.17630912 -0.1799032 -0.09607784 -0.12408885
0000d0 18 a3 a2 3d 57 17 02 3c dd 95 97 3e 28 75 19 bc
       0.07941264 0.007940135 0.29606524 -0.009366311
0000e0 16 2d ae be 6c a1 4f bd 60 47 b0 3e 4e 43 09 be
       -0.34018773 -0.050691053 0.34429455 -0.13404581
0000f0 53 04 1d be a3 cc 67 be 83 09 3c be 48 58 fc 3c
       -0.15333681 -0.22636656 -0.18363003 0.030803815
000100 83 1c e9 bd 5d 80 4d 3e 81 ac c8 bd f5 3e 1e be
       -0.11382391 0.20068498 -0.097985275 -0.15453704
000110 89 f6 77 be 32 a2 61 3e f8 e8 61 be 50 c1 11 3e
       -0.2421514 0.22034529 -0.22061527 0.14233899
000120 08 69 45 3c c0 47 dd bb 8e ca 89 be bd a5 69 be
       0.012048967 -0.006752938 -0.2691235 -0.2281713
000130 b2 c0 91 3e c9 ef 49 be 7e 3c f2 3d 1e a7 fa 3c
       0.28467327 -0.19720377 0.11827944 0.030597266
000140 c4 6d 27 3e ef 12 17 bd 27 fd bc 3d 03 6e ee 3d
       0.16350466 -0.03688329 0.092279725 0.11642077
000150 f1 4a 34 3e a3 d9 63 3e 1f ae df bd a3 26 16 3e
       0.17606713 0.2225099 -0.10921883 0.14663176
000160 c2 8b 5e be c6 4c 71 3e 17 06 31 3e 83 c5 7e 3c
       -0.21733001 0.23564443 0.1728748 0.01555002
000170 43 d5 95 bd 20 4b 70 3e d9 42 80 3d a6 f5 4a be
       -0.07316067 0.23466158 0.0626275 -0.1982027
000180 ee f0 bf bd c8 fe 91 be be e6 8e bc 6f fa f6 bd
       -0.093721256 -0.28514695 -0.01744401 -0.12059485
000190 2a 27 38 3c 46 49 2f 3e bd 12 f7 3d 3a 13 23 bd
       0.011239806 0.17117795 0.12064121 -0.039813258
0001a0 e1 d5 4d 3e 51 65 76 3e e8 e9 e3 b9 ae 0c 3e bb
       0.2010112 0.24062087 -0.00043471088 -0.0028999257
0001b0 1d b0 05 3d a4 95 03 bd da 09 4d 3e 27 24 44 3e
       0.032638658 -0.03212513 0.2002329 0.19154416
0001c0 26 75 f0 3d 58 41 d9 bd 44 44 97 be 2c 03 52 be
       0.11741094 -0.106081665 -0.2954427 -0.20509022
0001d0 fc a8 0b bd ee d0 80 be f6 3f 41 3e 35 8a 3f be
       -0.034096703 -0.251594 0.18872055 -0.18705066
0001e0 ca 7a 81 be 2b 8a 88 3e 26 0e f8 bc 33 49 37 3e
       -0.25288993 0.26667914 -0.030280184 0.17899017
0001f0 64 79 d0 ba 68 82 12 be fb c4 a0 bc 6a 3f 99 3e
       -0.0015905318 -0.14307559 -0.019625178 0.29931194
000200 8a 3d 1d 3e dc 56 10 3e 50 8b 50 be d9 5b 83 3e
       0.15355507 0.14095634 -0.20365644 0.25656012
000210 f5 bc 8f 3e 4c 45 08 be 39 62 75 3e 48 61 90 3d
       0.2807385 -0.13307685 0.2396325 0.07049805
000220 a8 fc 3d 3e 3b 2d 5b be a7 0d 44 3e 6e 9d 35 be
       0.18553412 -0.21403973 0.19145833 -0.17735836
000230 38 c2 d0 3d 47 da 7f 3d 03 93 34 bb 54 92 21 be
       0.10193294 0.062464025 -0.0027553446 -0.15778476
000240 87 71 05 be 1b d9 44 3e 0c 67 98 be 7b 0a 0f 3e
       -0.13031588 0.19223444 -0.2976612 0.13968842
000250 b9 64 39 3e 07 1d 85 3e 4d 21 81 be f4 db 30 be
       0.18104829 0.2599871 -0.2522072 -0.17271405
000260 e9 02 ac 3c cd 04 89 be 47 14 0d 3e c5 f9 1b be
       0.020997481 -0.26761475 0.13777266 -0.15231998
000270 a2 91 2b bd 4d b1 2a 3e cf 80 54 3e 80 f6 6d 3c
       -0.041886933 0.16669197 0.20752262 0.014524102
000280 3c 1a 0f 3e 40 81 aa be 5c 9c 3d be d1 e8 01 3e
       0.13974851 -0.33301735 -0.18516678 0.12686469
000290 2a 01 96 be 68 82 49 3d 49 c2 30 bd e6 66 53 be
       -0.29297763 0.04919663 -0.043154035 -0.20644721
0002a0 44 1e bc bd e7 ef 6c 3d 6e d1 17 3e 6a 4b 08 3e
       -0.0918546 0.057845976 0.14825985 0.13310018
0002b0 03 5c 56 3c dc 30 3e be ca ec 65 be 86 27 f7 bd
       0.013083461 -0.18573326 -0.22453609 -0.12068085
0002c0 6e f7 37 3e 3d 12 af 3e cf e3 32 3d 4d 07 60 3e
       0.1796548 0.34193602 0.043674286 0.21877785
0002d0 fc 27 0b 3e 39 5c b6 bd f9 d8 67 3e 53 91 88 3e
       0.13589472 -0.08904309 0.22641362 0.26673374
0002e0 76 7f 22 be 6e 57 fd 3d a7 ce 42 3e ca 31 67 be
       -0.15868935 0.123701915 0.19024144 -0.22577587
0002f0 95 7e 3f bd 87 62 42 be 9c ba 4b be b2 a9 a2 3d
       -0.046751577 -0.18982898 -0.19895405 0.07942523
000300 7a 8d 4e be 69 12 2f 3e fd 3e 60 be 74 17 60 be
       -0.20171157 0.17096867 -0.21899028 -0.21883947
000310 83 12 18 3e 49 bd 21 3e 32 44 11 3e 9d 5f 62 3d
       0.14850812 0.15794863 0.1418617 0.055266965
000320 95 17 65 3e 16 78 97 3d 3c 6d 52 3e 58 5a 07 3e
       0.22372277 0.073959514 0.20549482 0.13218057
000330 ae 63 ff 3c 00 af c1 39 10 f4 8a bd 8d 6f 24 be
       0.03117546 0.00036942214 -0.067848325 -0.16058178
000340 18 5c 6e bd 17 1e 1e be da 57 b4 3d 1d 6d 66 3e
       -0.058193296 -0.15441166 0.08805819 0.22502561
000350 95 d4 f7 bd 40 11 9b 3c 42 ba 8b be 00 bc 7d 3d
       -0.12101094 0.018929124 -0.2729054 0.06194687
000360 1e 3f 6c 3e cf 9b 71 3e fa 2a d7 bd d4 9f 05 3e
       0.23070952 0.23594593 -0.10506244 0.13049251
000370 ff 23 3a 3e 81 5b eb bd 6a b3 58 3e 15 51 83 be
       0.18177794 -0.11492062 0.21162191 -0.25647798
000380 6d 80 19 3e c9 e1 8e 3c 38 62 7e 3e aa c5 0e be
       0.14990397 0.017441647 0.24842155 -0.1394259
000390 8f 65 b6 3d fc 2e 43 be c0 6f 50 be 59 24 82 be
       0.089060895 -0.19060892 -0.20355129 -0.25418356
0003a0 21 6e ea 3b 93 cb 17 bd 1b 8a 64 3e fd ac 8e bd
       0.0071542417 -0.037059378 0.22318308 -0.06966589
0003b0 ec 70 e7 bd f4 dc 7d 3d 66 67 12 be 19 c3 d8 3d
       -0.11300835 0.061978295 -0.14297256 0.10584087
0003c0 98 40 cc 3d 6c d3 2a 3e 90 fa 3c be e0 06 a8 3e
       0.09973258 0.16682214 -0.18454957 0.32817745
0003d0 07 6b 51 be a8 72 39 3e a3 26 a9 bd 32 49 5d be
       -0.20450984 0.18110144 -0.082593225 -0.21609953
0003e0 fe be 41 3e 79 df 1e be 52 1a 16 3e ff 6e b8 be
       0.18920514 -0.15514936 0.14658478 -0.36022183
0003f0 63 dd fd 3d ca ae 18 be 2e 1b 2a be 50 cf fd 3d
       0.12395742 -0.14910427 -0.1661193 0.12393057

V f4 [64, 1]
000000 c9 ad d1 3d da 48 80 3d 57 10 c8 be db fd 1b bd
       0.10238225 0.06263895 -0.39074966 -0.038083892
000010 94 40 39 3e c8 c4 58 3e 3a 58 8f 3e 3a 68 16 be
       0.18091041 0.21168816 0.27997 -0.14688197
000020 86 72 40 bc f1 8d 85 be a4 9a 6c 3e 4a 5f e1 3d
       -0.0117460545 -0.26084855 0.23105866 0.11004503
000030 19 fd 5c be 2e e3 11 3e 74 6b 86 bd e0 f9 06 3e
       -0.21580924 0.14246818 -0.06563464 0.13181257
000040 8d ec d6 3d 05 bf 0f 3b d9 76 af be 27 4c 0a 3e
       0.10494337 0.0021933925 -0.3427036 0.13505612
000050 35 5a 1a 3e 86 37 74 3d 5e 58 00 be 14 84 5c be
       0.15073474 0.059623264 -0.1253371 -0.21534759
000060 dc 0a 01 be 5e e0 a2 be 0b 76 54 3e af 53 4f 3e
       -0.12601799 -0.31811804 0.20748155 0.20246767
000070 a1 51 da 3d e3 60 cf 3d 30 05 07 3d 5b 97 3a 3d
       0.10660101 0.101259016 0.03296393 0.0455545
000080 05 8a a7 3d 7d 0a 57 be 8a 1a ca 3d da 58 4f bd
       0.08180622 -0.21000095 0.09868343 -0.050621845
000090 fd b4 83 be e9 82 da bd 6b 9c 13 be a3 75 b2 be
       -0.2572402 -0.106695004 -0.14415137 -0.34855375
0000a0 9a b9 01 3d 9a cf 0a be 4b 21 dd bc fa be 68 3e
       0.031671144 -0.13555756 -0.026993414 0.22729102
0000b0 9a 2b 38 3e 4d c6 81 3d 01 a0 80 be 63 be c9 3d
       0.17985383 0.06336651 -0.25122073 0.098507665
0000c0 c3 13 12 3d f1 73 53 3e 3a 67 6f bc eb 6a 4b 3b
       0.035663377 0.20649697 -0.0146120135 0.003103907
0000d0 de 75 9f 3e b2 3a d5 bd e1 99 ad 3e 17 6c 2f 3e
       0.31144613 -0.10411586 0.33906463 0.17131077
0000e0 4b 98 b3 be 09 8f 68 bd ff 7a a4 3e 02 89 b8 bc
       -0.35077128 -0.056777034 0.3212509 -0.022526268
0000f0 f7 f3 65 be 42 67 cb 3d 20 7d 6a bc 1a 62 88 3c
       -0.22456346 0.09931804 -0.014312059 0.016648341

nu f8 []
000000 7b 14 ae 47 e1 7a 84 3f
       0.01
