models/ocnn_2020-05-22-08:19:1590149948/params.npz (npz, 1246 bytes, 3 tensors)

w f4 [3, 32]
000000 e7 e8 23 be 0a 80 33 be 61 f8 64 3d ea ca 37 be
       -0.16006814 -0.17529312 0.055900935 -0.179485
000010 57 e1 15 be 2e 82 9e be 8e f2 80 3e ff 48 6d 3e
       -0.14636742 -0.30958694 0.25185055 0.23172377
000020 25 5f 70 be 6e 7c 33 3d 62 23 35 3e a3 c8 87 3e
       -0.23473795 0.043819837 0.17689279 0.2652026
000030 fc bc 40 3e 21 42 fa bd 7a 86 c6 3d 01 a8 7c be
       0.18822092 -0.12219644 0.09693618 -0.24673463
000040 6d 8b b6 bc 19 ce b7 be 90 b3 be 3e 59 a5 5d 3d
       -0.02228328 -0.35899428 0.3724637 0.054112766
000050 be 4d 0b be 86 90 83 3d bd c9 cc 3d 5b 19 8d 3e
       -0.13603875 0.0642405 0.09999416 0.27558407
000060 36 2f b7 3d c0 59 e4 3d 4e 43 c5 3e 4a 90 7d bc
       0.08944552 0.11149931 0.38527912 -0.015476296
000070 bf a3 05 3d 86 c9 15 be b8 69 c9 3e 8b a5 3c 3e
       0.032626864 -0.14627656 0.3933847 0.18422525
000080 37 15 4c 3b 0a 39 55 3d c0 3b 94 3e 4e e3 55 3d
       0.0031140575 0.05205635 0.28951836 0.052218728
000090 c3 fd 41 be d7 a9 9e 3e 92 2a b1 3d a4 43 c3 be
       -0.18944459 0.30988953 0.08650698 -0.38137543
0000a0 9e 3e f6 3d 9a 3c 12 bf fd a6 1e 3e 4e 24 b2 3d
       0.12023662 -0.5712372 0.15493388 0.08698331
0000b0 3b 2d 09 bf 9e 56 8a be eb b5 df 3d bf 0a 9f 3e
       -0.5358464 -0.2701921 0.1092337 0.31062886
0000c0 04 13 18 3e 5b 45 69 be c8 f3 24 be 55 77 56 be
       0.14851004 -0.22780363 -0.1610862 -0.20943959
0000d0 5c 0d 9f be 2e 18 16 3f b1 a5 a7 be 46 f4 eb be
       -0.3106488 0.58630645 -0.327436 -0.46084803
0000e0 19 18 6f be 48 9a 07 bf 1a 9f cc 3e 3b 2b 8a 3e
       -0.23349036 -0.5296979 0.39965135 0.26986107
0000f0 61 23 c9 3d 84 44 d2 3e 82 82 9f 3e 29 0e e8 3b
       0.09821201 0.41067898 0.31154257 0.007081766
000100 39 4c 84 3d 76 af 5a bd c1 93 b2 3e 21 e7 68 3e
       0.06459851 -0.05338999 0.34878352 0.22744419
000110 b2 4c 0e be e4 ef 7f 3d e3 24 d7 be 47 4e ef 3d
       -0.13896444 0.062484637 -0.4202033 0.11684852
000120 94 45 ac 3e a7 64 43 be d3 65 6a be 83 5f 25 3e
       0.33646834 -0.19081365 -0.22890405 0.16149716
000130 41 66 82 bd a7 01 ad 3a 4d 4b 85 be 18 c5 90 be
       -0.0636716 0.0013199345 -0.26034012 -0.2827537
000140 61 3c 8c 3e 22 fe e4 bd ed 55 ec be 8b 7a d0 be
       0.27389815 -0.111812845 -0.46159306 -0.40718493
000150 50 00 8d 3e bc c1 bb bd f7 c8 f2 be f9 e5 b0 bc
       0.275393 -0.09167811 -0.4741895 -0.021594035
000160 27 46 80 be 0b 6f 7b 3d 00 3f 16 3e 9d de ad 3e
       -0.25053522 0.061385196 0.1467247 0.33958903
000170 4d 26 76 3e 1a 73 a5 3d 63 b9 b4 be 04 29 65 be
       0.24038048 0.080785945 -0.3529769 -0.22378927

V f4 [32, 1]
000000 2d ee 02 bc b7 20 70 bd c6 6c a8 be 9e 66 d7 3d
       -0.007991356 -0.05862495 -0.32895488 0.105176196
000010 0c 01 bb 3d 40 c6 ec 3e 01 43 65 3e 50 cc c4 be
       0.09131059 0.46245003 0.22388841 -0.38437128
000020 03 33 8e bc bb 87 b9 be 35 4d af 3e 8a f6 43 3e
       -0.017358309 -0.36236367 0.34238592 0.19137016
000030 94 b4 ee be 53 3d 17 3d b5 93 e3 bd b9 be 47 3e
       -0.46622145 0.036923718 -0.11112157 0.19506349
000040 62 06 a2 3e 4a f4 f4 39 17 32 f5 be b8 da e4 3c
       0.31645495 0.00046721316 -0.47889778 0.027936324
000050 12 24 70 3d 9e 5b 9e 3d a3 90 2f be 86 a5 99 be
       0.05862815 0.07732318 -0.17145018 -0.30009097
000060 e0 a5 b0 be c0 4b e2 be ee 14 92 3e 4c 99 e6 3e
       -0.34501553 -0.44198418 0.28531593 0.4503883
000070 11 32 a2 3e d6 54 0c 3e b7 fd fc bd 57 79 94 3d
       0.31678823 0.13704237 -0.1235308 0.07249706

nu f8 []
000000 7b 14 ae 47 e1 7a 84 3f
       0.01
