models/ocnn_2020-05-17-21:41/params.npz (npz, 1246 bytes, 3 tensors)

w f4 [3, 32]
00000000: 1fc2 5a3e d8f1 d6bc cde0 f13e 61b3 2dbd
00000010: 24aa fdbe 1f44 773e bd8d 0cbd 5673 ce3e
00000020: dbda c93e 5852 a6bb 38a0 9fbe 44d8 01bf
00000030: f476 a93d fc14 d9bd 1707 6c3b 8b3a 483e
00000040: 05d7 a3be caf8 a2be 6c22 c93d 1ea1 ea3d
00000050: 5875 3e3e 93b3 9a3d f44e 51be ae06 853e
00000060: 4971 a03e 0daa a13e 2599 873e a00f cdbe
00000070: 2e3c d13d 8b34 bb3d d542 eb3e dd29 96be
00000080: 1c45 e03e 20de fe3e 975b a5be e287 0f3e
00000090: 1d2b 773e fa3b a83e 5f55 a03d c74d b53d
000000a0: a962 9f3d 779d 863d 5cc9 e63e 4f63 643e
000000b0: 2eb4 633e 6b5c d73d 29fc ac3e 79a3 34be
000000c0: 7619 e13e 0fa5 7fbe 6c06 a7be 1103 323c
000000d0: 95af 063e a025 3d3e 73d1 743e 331a 52be
000000e0: d0c8 01bf 0d1d b6bd db6b 033f 8617 32be
000000f0: a7e4 02bd 3cd3 a1be 1861 eabe adff 6a3e
00000100: 536f d8bd 82cc 983e 9524 80be 123f c5bb
00000110: f189 85be 8265 e03e f514 64be ec9d b53d
00000120: b23d 07be a342 ddbd 2220 8ebe a678 55be
00000130: 4fc2 963e b851 53be 431b 833e 0faf 283e
00000140: 9d6a b93e d273 ce3d f82f fb3c 4e29 823e
00000150: 0937 b03e 5265 193e db02 70be 5806 f13d
00000160: d72e e1be 29a7 753e f9ff b13e f5cd 0f3e
00000170: be79 873c 626d cc3e d5fe e2bd 50ce 24be
0.21363114 -0.026238367 0.47241822 -0.042407397 -0.4954387 0.2414708 -0.03431486 0.4032237
0.39424786 -0.005075734 -0.31176925 -0.5072062 0.08274642 -0.105997056 0.0036014968 0.19553582
-0.31999984 -0.31830436 0.098210186 0.11456512 0.1859945 0.07553782 -0.20440274 0.2598166
0.3133643 0.3157505 0.26484028 -0.40050983 0.102165565 0.09140881 0.45949426 -0.29328814
0.43802726 0.49778843 -0.3229644 0.14016679 0.2413754 0.32858258 0.07828783 0.088527255
0.0778249 0.06573003 0.450755 0.22303508 0.22236702 0.10515674 0.33786133 -0.17640485
0.43964738 -0.24965309 -0.32622087 0.010864989 0.13152917 0.18471384 0.23908024 -0.20517807
-0.5069704 -0.0889226 0.5133645 -0.17391786 -0.03195634 -0.31606472 -0.45777202 0.22949095
-0.105681084 0.29843527 -0.2502791 -0.0060194815 -0.26081803 0.43827444 -0.2227362 0.08868012
-0.13207129 -0.108037256 -0.2775889 -0.20846805 0.2944512 -0.20636642 0.25606737 0.1647303
0.36214152 0.10080685 0.030662522 0.25422138 0.34416988 0.14980057 -0.2343859 0.11768788
-0.43981048 0.23989548 0.34765604 0.1404341 0.016537543 0.39927202 -0.110837616 -0.16094327

V f4 [32, 1]
00000000: 6ed0 b8bc ddb2 f83d 455f 03bf c280 80bd
00000010: d0c0 8d3d c89f f83e ac3d 4e3e 8151 49be
00000020: 1e98 f8bd c67d 3bbe 0a55 a73e a88e 073e
00000030: b06c 90be c65b 5c3c 7447 b83d 99c7 303e
00000040: 6f6f ad3e b5e9 adbc 6abe 02bf aa37 5d3e
00000050: 035d 713e 5f88 db3d a4bb 0e3c c8ad f7bd
00000060: 4938 bcbe ee04 84be ace6 9d3e d7a7 8d3e
00000070: 84d8 073e 7cb7 bebc f412 0fbe 3803 593d
-0.022560325 0.121434905 -0.51317245 -0.062745586 0.06921542 0.48559403 0.20140713 -0.19659998
-0.12138389 -0.18309698 0.32682067 0.13238013 -0.28207922 0.013449615 0.089980036 0.1726364
0.3387408 -0.021229604 -0.510718 0.21603265 0.23570637 0.1071937 0.008711729 -0.12093693
-0.36761692 -0.2578501 0.3084005 0.27667114 0.13266188 -0.023280852 -0.13972074 0.052981585

nu f8 []
00000000: 7b14 ae47 e17a 843f
0.01
