models/ocnn_2020-05-23-14:17:1590257877/params.npz (npz, 1246 bytes, 3 tensors)

w f4 [3, 32]
000000 2b 40 24 be 43 d9 33 be 0c 54 66 3d c4 1c 38 be
       -0.16040103 -0.17563348 0.056232497 -0.17979723
000010 79 38 16 be 67 ad 9e be 15 c7 80 3e 62 9f 6d 3e
       -0.1466998 -0.3099167 0.25151888 0.23205331
000020 a5 07 70 be 13 d6 34 3d 7b cc 34 3e 61 9d 87 3e
       -0.23440416 0.04414947 0.17656128 0.26487258
000030 7f 13 41 3e da f0 fa bd ba 1c c7 3d ff fe 7c be
       0.18855093 -0.1225297 0.09722276 -0.24706648
000040 13 3e b9 bc ea f9 b7 be d8 de be 3e 90 47 5c 3d
       -0.022612607 -0.35932857 0.3727939 0.053779185
000050 d8 a4 0b be 47 90 83 3d 3e 75 cd 3d 8c 44 8d 3e
       -0.13637102 0.06424003 0.10032128 0.2759136
000060 fa db b7 3d af 06 e5 3d 25 18 c5 3e fa 7b 81 bc
       0.08977504 0.111829154 0.38494983 -0.015806187
000070 80 4a 04 3d 96 1e 16 be 77 93 c9 3e 53 4e 3c 3e
       0.03229761 -0.14660105 0.3937032 0.18389253
000080 10 29 62 3b a5 94 56 3d 60 0f 94 3e 95 40 57 3d
       0.0034509338 0.052387852 0.2891798 0.052551825
000090 19 a5 41 be 2b d6 9e 3e e8 db b1 3d f4 6f c3 be
       -0.18910636 0.31022772 0.08684522 -0.3817135
0000a0 45 8d f5 3d c6 52 12 bf aa ff 1e 3e 0d d5 b2 3d
       0.11989836 -0.5715755 0.15527216 0.087320425
0000b0 62 43 09 bf 4c 2a 8a be ce 0c df 3d 12 37 9f 3e
       -0.53618443 -0.26985395 0.10891114 0.31096703
0000c0 a5 6b 18 3e b3 ec 68 be 6b 4c 25 be a6 1e 56 be
       0.14884813 -0.22746544 -0.16142432 -0.20910129
0000d0 1c e1 9e be 5c 1d 16 3f f2 d1 a7 be 97 20 ec be
       -0.3103112 0.5863855 -0.32777363 -0.46118614
0000e0 b5 70 6f be 73 b0 07 bf 62 cb cc 3e 8f 57 8a 3e
       -0.23382838 -0.53003615 0.3999892 0.27019927
0000f0 94 d4 c9 3d bd 70 d2 3e 93 56 9f 3e 09 24 f3 3b
       0.09854999 0.41101637 0.31120738 0.007420067
000100 c5 fd 84 3d 66 51 59 bd 30 67 b2 3e 95 3e 69 3e
       0.06493715 -0.053056143 0.3484435 0.2277778
000110 8c f3 0d be 11 aa 80 3d 4e f8 d6 be 3c 9c ee 3d
       -0.13862437 0.062824376 -0.41986316 0.11650893
000120 f7 18 ac 3e ac bd 43 be b2 0c 6a be 50 b8 25 3e
       0.33612797 -0.19115323 -0.22856405 0.16183591
000130 65 18 83 bd 77 95 d9 3a 68 75 85 be 89 98 90 be
       -0.06401137 0.001660033 -0.26066136 -0.28241375
000140 ea 68 8c 3e d1 4b e4 bd 6f 82 ec be f8 4d d0 be
       0.27423793 -0.11147273 -0.46193263 -0.40684485
000150 d7 2c 8d 3e 95 99 bb bd 67 f5 f2 be 27 ae b3 bc
       0.27573273 -0.09160153 -0.47452852 -0.021933628
000160 b2 72 80 be d8 0a 7a 3d fb 97 16 3e 20 0b ae 3e
       -0.25087506 0.061045498 0.14706413 0.33992863
000170 50 7f 76 3e 7c 24 a6 3d 71 e5 b4 be dd cf 64 be
       0.24072003 0.081124276 -0.353313 -0.22344919

V f4 [32, 1]
000000 3a 88 08 bc 4c 87 71 bd 42 40 a8 be 89 16 d8 3d
       -0.00833326 -0.05896692 -0.32861525 0.10551173
000010 be 4e ba 3d 1a f2 ec 3e 3d ea 64 3e c1 f6 c4 be
       0.0909705 0.4627846 0.2235498 -0.38469508
000020 f8 6c 8b bc 10 b4 b9 be d2 20 af 3e 11 b8 43 3e
       -0.017019734 -0.3627019 0.34204727 0.19113185
000030 b4 e0 ee be 75 d9 15 3d b3 38 e4 bd eb 63 47 3e
       -0.4665581 0.036584336 -0.11143627 0.1947171
000040 d4 32 a2 3e 32 bb 03 39 5e 5e f5 be 29 13 e2 3c
       0.31679404 0.00012562869 -0.4792356 0.027597027
000050 5b c5 6e 3d 98 05 9f 3d 7e e9 2f be 82 d1 99 be
       0.05829368 0.07764739 -0.17178914 -0.30042654
000060 3a d2 b0 be b5 77 e2 be fd 41 92 3e c0 c5 e6 3e
       -0.3453539 -0.44231954 0.2856597 0.45072746
000070 a1 5e a2 3e 09 ad 0c 3e 17 aa fd bd e7 c7 93 3d
       0.3171282 0.13737883 -0.12385958 0.07215863

nu f8 []
000000 fc a9 f1 d2 4d 62 50 3f
       0.001
