models/ocnn_2020-05-18-22:26:1589855191/params.npz (npz, 862 bytes, 3 tensors)

w f4 [3, 8]
0.4376405 0.05615515 0.7805659 -0.039100416 -0.82657874 0.49295592 -0.0005730979 0.65864444
0.6404219 -0.12410461 -0.50758183 -0.63705844 0.10148304 0.12227489 0.061500244 0.40075466
-0.26791635 -0.32322714 -0.14045146 0.47960576 0.651731 0.42055455 -0.41326225 0.15514117
00000000: 6a12 e03e f102 663d 2bd3 473f c227 20bd
00000010: aa9a 53bf b864 fc3e f33b 16ba ec9c 283f
00000020: b1f2 233f 8f2a febd e2f0 01bf 4316 23bf
00000030: 57d6 cf3d 426b fa3d aee7 7b3d b72f cd3e
00000040: 552c 89be 077e a5be 82d2 0fbe e38e f53e
00000050: d8d7 263f ed52 d73e 1c97 d3be 54dd 1e3e

V f4 [8, 1]
0.01170857 -0.09440217 -0.91442126 -0.07639857 0.45683548 0.8915939 0.45585635 -0.44220036
00000000: 4dd5 3f3c ed55 c1bd 8317 6abf da76 9cbd
00000010: 57e6 e93e 7f3f 643f 0166 e93e 1668 e2be

nu f8 []
0.01
00000000: 7b14 ae47 e17a 843f
