models/ocnn_2020-05-17-20:12/params.npz (npz, 1246 bytes, 3 tensors)

w f4 [3, 32]
0	0x3e5ab3c3	0.21357636
1	0xbcd77790	-0.026302129
2	0x3ef1e88b	0.4724773
3	0xbd2ddfdb	-0.042449813
4	0xbefdb1ab	-0.49549612
5	0x3e7734a4	0.24141175
6	0xbd0cca86	-0.03437283
7	0x3ece7aee	0.40328163
8	0x3ec9e277	0.3943059
9	0xbba46c6c	-0.0050178077
10	0xbe9fa7e0	-0.31182766
11	0xbf01dc10	-0.50726414
12	0x3da99568	0.0828045
13	0xbdd932cd	-0.106053926
14	0x3b6d3677	0.0036195794
15	0x3e482b5d	0.19547792
16	0xbea3dec6	-0.320059
17	0xbea3001e	-0.31836027
18	0x3dc9415e	0.09826921
19	0x3dea81b6	0.11450522
20	0x3e3e65a8	0.18593466
21	0x3d9a9369	0.075476475
22	0xbe514033	-0.20434646
23	0x3e850e41	0.25987437
24	0x3ea07909	0.31342342
25	0x3ea1b1a9	0.31580856
26	0x3e87915d	0.2647809
27	0xbecd173b	-0.40056786
28	0x3dd11de2	0.10210778
29	0x3dbb17d1	0.09135402
30	0x3eeb4af2	0.45955616
31	0xbe96315f	-0.29334542
32	0x3ee04c63	0.43808278
33	0x3efee58f	0.49784514
34	0xbea56314	-0.32302153
35	0x3e0f9491	0.14021517
36	0x3e773a08	0.24143231
37	0x3ea8437f	0.32863995
38	0x3da07347	0.078344874
39	0x3db52fdf	0.08847021
40	0x3d9f4534	0.07776871
41	0x3d867f90	0.06567299
42	0x3ee6d0d5	0.450812
43	0x3e64723e	0.22309205
44	0x3e63a538	0.22230995
45	0x3dd77a1f	0.105213396
46	0x3eacf7e5	0.3378288
47	0xbe349488	-0.17634785
48	0x3ee120ff	0.43970487
49	0xbe7f9640	-0.2495966
50	0xbea70ded	-0.32627812
51	0x3c32f323	0.010922226
52	0x3e06bea2	0.13158658
53	0x3e3d3171	0.18475892
54	0x3e74c2a5	0.23902376
55	0xbe52291e	-0.20523497
56	0xbf01cc93	-0.5070278
57	0xbdb63af5	-0.08897964
58	0x3f036f9e	0.5134219
59	0xbe320890	-0.17386079
60	0xbd02a8e6	-0.031899355
61	0xbea1cbf6	-0.31600922
62	0xbeea68a2	-0.45782954
63	0x3e6b0e98	0.22954786
64	0xbdd851f0	-0.10562503
65	0x3e98d40e	0.29849285
66	0xbe802c2a	-0.25033695
67	0xbbc3aa22	-0.005971209
68	0xbe858265	-0.26076046
69	0x3ee06d18	0.43833232
70	0xbe6405dc	-0.2226786
71	0x3db57fba	0.088622525
72	0xbe074c9b	-0.13212816
73	0xbddd60cf	-0.108094804
74	0xbe8e1895	-0.2775313
75	0xbe55698c	-0.20841044
76	0x3e96bac3	0.29439363
77	0xbe5342b6	-0.20630917
78	0x3e831746	0.25603694
79	0x3e28be23	0.16478781
80	0x3eb97235	0.36219946
81	0x3dce9199	0.10086364
82	0x3cfab6b2	0.030604694
83	0x3e8230e5	0.2542793
84	0x3eb03ea0	0.3442278
85	0x3e1971b7	0.14984785
86	0xbe7011cc	-0.23444289
87	0x3df0e834	0.11763039
88	0xbee13670	-0.43986845
89	0x3e75980e	0.23983786
90	0x3eb20790	0.34771395
91	0x3e0fdd10	0.14049172
92	0x3c87f260	0.016595066
93	0x3ecc74ba	0.39932805
94	0xbde31d50	-0.11089575
95	0xbe24bf46	-0.1608859

V f4 [32, 1]
0	0xbcb949bb	-0.022618165
1	0x3df8d11c	0.121492594
2	0xbf036313	-0.5132305
3	0xbd809b7c	-0.06279656
4	0x3d8da349	0.0691591
5	0x3ef8a750	0.4856515
6	0x3e4e2e99	0.20134963
7	0xbe4942b6	-0.19654354
8	0xbdf8a2f1	-0.121404536
9	0xbe3b6f1b	-0.18304102
10	0x3ea74d97	0.32676384
11	0x3e07801f	0.13232468
12	0xbe906528	-0.28202176
13	0x3c5b6ba0	0.013392359
14	0x3db86581	0.09003735
15	0x3e30b8b8	0.17257965
16	0x3ead7704	0.33879864
17	0xbcae5e2c	-0.021285139
18	0xbf02c225	-0.5107749
19	0x3e5d44fa	0.21608344
20	0x3e716c21	0.23576404
21	0x3ddba59b	0.10724946
22	0x3c0fa819	0.008768105
23	0xbdf7907d	-0.12088106
24	0xbebc3fd8	-0.3676746
25	0xbe83fd74	-0.25779307
26	0x3e9dee32	0.3084579
27	0x3e8da12e	0.27662033
28	0x3e07c988	0.13260472
29	0xbcbf17fc	-0.023326866
30	0xbe0f2222	-0.13977864
31	0x3d58c844	0.052925363

nu f8 []
0	0x3f847ae147ae147b	0.01
