models/ocnn_2020-05-17-20:29/params.npz (npz, 1246 bytes, 3 tensors)

w f4 [3, 32]
000000 95 bf 5a 3e 81 09 d7 bc 2a e2 f1 3e 2c bb 2d bd
       0.21362145 -0.026249649 0.47242862 -0.04241483
000010 7a ab fd be 67 41 77 3e 76 98 0c bd ac 74 ce 3e
       -0.4954489 0.24146043 -0.034325086 0.4032339
000020 31 dc c9 3e a3 fc a5 bb 91 a1 9f be ee d8 01 bf
       0.39425805 -0.005065517 -0.31177953 -0.50721633
000030 53 7c a9 3d 40 1a d9 bd 7c 3b 6c 3b dc 37 48 3e
       0.08275666 -0.1060071 0.0036046198 0.19552559
000040 64 d8 a3 be 16 fa a2 be e3 27 c9 3d 94 9b ea 3d
       -0.3200103 -0.31831425 0.09822061 0.114554554
000050 96 72 3e 3e de ad 9a 3d 59 4c 51 be 04 08 85 3e
       0.18598399 0.07552694 -0.2043928 0.25982678
000060 a5 72 a0 3e 64 ab a1 3e c5 97 87 3e f8 10 cd be
       0.31337467 0.31576073 0.26482978 -0.4005201
000070 d4 36 d1 3d 7a 2f bb 3d 44 44 eb 3e 33 2b 96 be
       0.10215536 0.09139915 0.4595052 -0.29329833
000080 67 46 e0 3e ad df fe 3e fd 5c a5 be ca 89 0f 3e
       0.43803713 0.49780026 -0.32297507 0.14017406
000090 d5 2d 77 3e 61 3d a8 3e e3 5a a0 3d 46 48 b5 3d
       0.24138577 0.32859328 0.07829835 0.08851676
0000a0 29 5d 9f 3d f5 97 86 3d bd ca e6 3e 0e 66 64 3e
       0.07781441 0.06571952 0.45076552 0.22304556
0000b0 6b b1 63 3e c8 61 d7 3d d6 fb ac 3e b8 a0 34 be
       0.22235648 0.10516697 0.33785886 -0.17639434
0000c0 df 1a e1 3e 6a a2 7f be d4 07 a7 be d8 30 32 3c
       0.43965814 -0.249643 -0.3262316 0.010875903
0000d0 72 b2 06 3e b9 28 3d 3e cb ce 74 3e ee 1c 52 be
       0.13154009 0.18472566 0.2390701 -0.20518848
0000e0 87 c9 01 bf 90 22 b6 bd 92 6c 03 3f c3 14 32 be
       -0.5069813 -0.08893311 0.5133754 -0.17390732
0000f0 b0 d9 02 bd f2 d1 a1 be 99 62 ea be 64 02 6b 3e
       -0.031945884 -0.31605488 -0.4577835 0.2295013
000100 27 6a d8 bd 0c ce 98 3e fe 25 80 be dc 01 c5 bb
       -0.10567122 0.298447 -0.25028986 -0.0060121845
000110 91 88 85 be eb 66 e0 3e 30 12 64 be 61 98 b5 3d
       -0.26080754 0.4382852 -0.22272563 0.088669546
000120 7a 40 07 be 28 48 dd bd bf 1e 8e be e4 75 55 be
       -0.1320819 -0.10804778 -0.27757832 -0.20845753
000130 e9 c0 96 3e 03 4f 53 be fd 1a 83 3e d4 b1 28 3e
       0.29444054 -0.2063561 0.25606528 0.16474086
000140 07 6c b9 3e 1e 79 ce 3d 58 19 fb 3c bc 2a 82 3e
       0.3621523 0.10081695 0.030651733 0.2542323
000150 76 38 b0 3e 6c 68 19 3e 86 05 70 be d9 00 f1 3d
       0.34418076 0.1498124 -0.23439607 0.1176774
000160 42 30 e1 be 66 a4 75 3e 62 01 b2 3e bc d0 0f 3e
       -0.4398213 0.23988494 0.3476668 0.1404447
000170 c9 8f 87 3c ad 6e cc 3e d5 04 e3 bd 92 cb 24 be
       0.016548054 0.3992819 -0.11084906 -0.16093281

V f4 [32, 1]
000000 0e df b8 bc 8f b8 f8 3d f6 5f 03 bf f2 84 80 bd
       -0.022567298 0.12144577 -0.513183 -0.06275357
000010 5a bb 8d 3d 38 a1 f8 3e f0 3a 4e 3e c2 4e 49 be
       0.069205 0.485605 0.2013967 -0.1965895
000020 37 9a f8 bd 2e 7b 3b be cb 53 a7 3e f3 8b 07 3e
       -0.12138789 -0.18308708 0.32681116 0.1323698
000030 4c 6b 90 be 0c 30 5c 3c fc 4c b8 3d f6 c4 30 3e
       -0.2820686 0.01343919 0.089990586 0.17262635
000040 d8 70 ad 3e 30 ff ad bc 31 bf 02 bf ca 3a 5d 3e
       0.33875155 -0.021239847 -0.51072985 0.21604457
000050 f1 5f 71 3e 4d 8e db 3d 84 e5 0e 3c 99 a8 f7 bd
       0.23571755 0.10720501 0.008721713 -0.12092704
000060 b1 39 bc be 91 03 84 be 1b e8 9d 3e 9c a6 8d 3e
       -0.36762765 -0.2578397 0.30841145 0.27666175
000070 d9 d5 07 3e ce c6 be bc c6 15 0f be a8 f8 58 3d
       0.1326517 -0.023288157 -0.1397315 0.052971512

nu f8 []
000000 7b 14 ae 47 e1 7a 84 3f
       0.01
